trained_base_model.pth (torch, 411382 bytes, 6 tensors)

lstm.weight_ih_l0 f4 [512, 63]
0	0x3d21419a	0.039369203
1	0x3d2cc27c	0.042177662
2	0x3c4cbb1c	0.012495782
3	0x3d5ecf63	0.054396998
4	0xbd251b20	-0.04030907
5	0x3d47475a	0.04865203
6	0xbd8e6c67	-0.0695427
7	0x3d18258c	0.037145182
8	0x3d7ff647	0.062490728
9	0xbdf0a644	-0.11750463
10	0x3def4b41	0.116842754
11	0xbd48e9ea	-0.049051203
12	0xbd0810f3	-0.03321929
13	0x3e38824c	0.18018454
14	0xbd89ebb2	-0.067344084
15	0xbd82644d	-0.06366787
16	0x3e12b2b7	0.14325987
17	0xbd506dac	-0.05088584
18	0xbe306375	-0.1722544
19	0x3dae52b3	0.085118674
20	0x3d5dfb0d	0.0541945
21	0xbe8deb97	-0.27718803
22	0xbb4e01be	-0.0031434144
23	0x3e4edf6b	0.20202415
24	0xbeccc606	-0.3999483
25	0xbd2140fa	-0.039368607
26	0x3e0bf845	0.13668926
27	0xbddc21ca	-0.10748632
28	0x3d957e8f	0.0729953
29	0xbe01cd62	-0.12676004
30	0x3e18d239	0.14923944
31	0xbdd89fbf	-0.10577344
32	0x3e018462	0.12648156
33	0x3d4cf58f	0.05003887
34	0xbdec714b	-0.115450464
35	0x3db9fc4d	0.09081326
36	0x3d748036	0.059692584
37	0xbc869ddc	-0.016432695
38	0xbc835f95	-0.016036788
39	0x3d02dfda	0.031951763
40	0xbc9eb229	-0.019372063
41	0x3b35bcd4	0.0027730959
42	0x3db8a290	0.09015381
43	0x3c9bc610	0.019015342
44	0x3dc7fbe4	0.09764841
45	0xbc233671	-0.00996171
46	0x3d8102ea	0.06299384
47	0x3d1a5cb2	0.037686057
48	0x3d9b26bc	0.07575747
49	0x3ccab796	0.024745744
50	0xbd854c95	-0.065087475
51	0x3c9e3e7b	0.019316902
52	0xbde5f44e	-0.11228238
53	0x3e040989	0.12894262
54	0x3dc99ef6	0.098447725
55	0xbca62de2	-0.02028555
56	0x3d3fadf0	0.04679674
57	0x3e02d780	0.12777519
58	0x3dc0ca8c	0.09413633
59	0xbdb7e438	-0.08979076
60	0x3e4e1269	0.2012421
61	0x3d8b63a5	0.06806115
62	0x3b65d4d0	0.0035069473
63	0xbd9a875e	-0.075453505
64	0x3da3e3cb	0.080024324
65	0xbd214859	-0.039375637
66	0x3d8cb7ec	0.06871018
67	0x3dd5b840	0.104355335
68	0xbdbe5ddf	-0.09295248
69	0xbd0a9e4d	-0.033842374
70	0x3ea92bad	0.33041134
71	0xbccba1f2	-0.024857495
72	0x3e0d3e38	0.13793266
73	0x3de22dbe	0.11043881
74	0xbe23d030	-0.15997386
75	0xbca6ed66	-0.020376872
76	0x3cd6bfae	0.026214447
77	0xbda1fa35	-0.07909051
78	0x3e087ecb	0.13329618
79	0x3e1d0140	0.15332508
80	0xbcdff8e7	-0.027340366
81	0x3e023bee	0.12718174
82	0x3e52e0c7	0.20593558
83	0xbd9026f1	-0.070386775
84	0x3d0e3953	0.034722637
85	0x3e565773	0.20931797
86	0x3cca3230	0.024682134
87	0xbe9c3c61	-0.30514815
88	0x3e5945ae	0.21217987
89	0xbc873ed4	-0.016509451
90	0x3e53db8d	0.2068922
91	0xbe10e818	-0.14151037
92	0x3dc045ec	0.093883365
93	0x3ca7f701	0.020503523
94	0xbda5da03	-0.08098223
95	0xbe0782d5	-0.13233502
96	0x3d0f795c	0.035027847
97	0x3d6efeda	0.058348514
98	0xbe6fc190	-0.23413682
99	0x3c296c84	0.010340814
100	0x3d9fcdae	0.07802902
101	0xbe87d0d6	-0.26526517
102	0xbde11a17	-0.10991304
103	0xbe034626	-0.12819728
104	0xbd5cb7b9	-0.05388615
105	0xbe3e448c	-0.18580836
106	0xbdf920c4	-0.12164453
107	0xbde7ae46	-0.11312537
108	0xbe50e05e	-0.2039809
109	0x3ce5f6f3	0.028071856
110	0xbd965cca	-0.07341917
111	0xbbd6cff8	-0.0065555535
112	0x3e0f1d12	0.13975933
113	0xbe9df2d5	-0.3084933
114	0xbe3b7d2c	-0.18309468
115	0xbd600f4e	-0.054702096
116	0xbd3fed12	-0.046856947
117	0xbe88dbba	-0.26730138
118	0xbddb33dc	-0.10703251
119	0xbdc6bc2d	-0.097038604
120	0xbe8504f4	-0.2598034
121	0xbe73cbf6	-0.23808274
122	0xbdf1fa0d	-0.118152715
123	0xbea4c5d9	-0.32182196
124	0xbeaf0c66	-0.34189147
125	0xbe963ed5	-0.29344812
126	0xbe8cc50b	-0.27494082
127	0xbd66bf6c	-0.056334898
128	0xbe1e52af	-0.15461229
129	0xbe55246e	-0.20814678
130	0x3e14dac1	0.14536573
131	0xbd3c310e	-0.04594522
132	0xbe439ac6	-0.1910201
133	0x3dfff639	0.12498135
134	0x3cfee0a0	0.031112969
135	0xbd688f94	-0.05677755
136	0xbe5ca42c	-0.21547002
137	0x3de861cc	0.11346778
138	0x3d631345	0.0554383
139	0xbe9324b3	-0.28738937
140	0x3e6bed5b	0.23039763
141	0xbe302b90	-0.17204118
142	0x3e8da932	0.27668148
143	0x3ebb0338	0.36525893
144	0xbde93e3c	-0.113888234
145	0x3deb5cea	0.11492331
146	0x3eda1cdb	0.4260014
147	0xbd3bf674	-0.045889333
148	0x3e1bb5a4	0.15206009
149	0x3e4a1f30	0.1973846
150	0xbe29b595	-0.16573174
151	0x3c281a51	0.010260181
152	0x3dfd7d92	0.12377466
153	0x3da2e91d	0.07954619
154	0x3e131010	0.14361596
155	0x3d24f26c	0.040270254
156	0x3ec473ed	0.38369694
157	0x3dbd1842	0.092331424
158	0x3e1b8528	0.15187514
159	0x3e1907f8	0.14944446
160	0x3e132a01	0.14371492
161	0x3e616eba	0.22014895
162	0x3e02457f	0.12721823
163	0xbd47739f	-0.04869425
164	0x3e7dfdc5	0.24803837
165	0x3d9b35f5	0.07578651
166	0xbe71ef9f	-0.23626564
167	0xbed4f535	-0.41593328
168	0x3e8a56aa	0.27019244
169	0xbe887846	-0.2665426
170	0x3d26dc94	0.040737703
171	0x3dc18133	0.09448471
172	0xbe4c8527	-0.19972669
173	0x3e0d1622	0.13777974
174	0xbe0597a6	-0.1304613
175	0xbeb934bb	-0.36173043
176	0x3dba31bf	0.090915196
177	0x3d8bd744	0.06828168
178	0xbdb6afe5	-0.08920268
179	0xbee4e9d7	-0.44709656
180	0x3e1899c1	0.14902402
181	0xbe2e3b18	-0.1701473
182	0xbe214d7f	-0.15752219
183	0x3d09dff5	0.033660848
184	0xbdfc8081	-0.12329198
185	0x3b010018	0.0019683894
186	0xbd1930b2	-0.037399955
187	0xbe7b6174	-0.24548894
188	0xbc90e33c	-0.017686479
189	0xbd6e98a8	-0.058251053
190	0xbe124f47	-0.14288054
191	0x3e9d9ae0	0.30782223
192	0xbd6085a4	-0.05481495
193	0xbda36caa	-0.079797104
194	0x3e898dfa	0.26866132
195	0xbe27bb8d	-0.16380139
196	0xbd129949	-0.035790715
197	0x3e5d3e27	0.2160574
198	0xbd9d3dc8	-0.076777995
199	0x3e4ab1b1	0.19794346
200	0x3c3c6e13	0.011500853
201	0x3d66b11b	0.056321245
202	0x3d571fb8	0.052520484
203	0x3d64cae1	0.055857543
204	0xbe3df03f	-0.18548678
205	0xbc945111	-0.018105062
206	0xbeaa33d7	-0.33242676
207	0xbec0378f	-0.37542388
208	0x3bfcbfa5	0.0077132755
209	0xbcbb82d7	-0.022889538
210	0xbe44fe7f	-0.19237708
211	0xbc8648d5	-0.01639215
212	0xbd9aa272	-0.07550515
213	0xbe6d5b62	-0.23179391
214	0xbe4bae06	-0.19890603
215	0xbd6c14b7	-0.057636943
216	0x3cbec048	0.023285046
217	0x3d5d36a2	0.05400718
218	0xbe7a32b8	-0.2443341
219	0xbe0aeb09	-0.13566221
220	0x3ddadf1d	0.10687087
221	0xbd13b978	-0.03606555
222	0xbe41003a	-0.18847743
223	0x3dfae1bd	0.122500874
224	0xbd6b5fd5	-0.05746444
225	0xbd97a180	-0.074038506
226	0x3e01d0da	0.12677327
227	0x3d77a2ac	0.06045787
228	0x3d8a98eb	0.06767448
229	0xbdf35f82	-0.11883451
230	0x3e2cf9ae	0.1689212
231	0x3dea6329	0.114446945
232	0x3e8c68b7	0.2742364
233	0x3e7db58b	0.24776284
234	0xbe498ac3	-0.1968184
235	0xbd755d4b	-0.059903424
236	0x3e781556	0.24226889
237	0xbef97f1d	-0.48729792
238	0xbef749f0	-0.48298597
239	0x3e357a11	0.17722346
240	0x3e52f279	0.20600308
241	0xbdc9a456	-0.09845798
242	0x3ea0ec94	0.31430495
243	0x3d892205	0.06695942
244	0x3e0a938d	0.13532849
245	0x3e8ad85c	0.27118194
246	0xbe468f15	-0.19390519
247	0x3ca09409	0.019601839
248	0x3ed5b694	0.4174086
249	0xbe95da11	-0.29267934
250	0xbeccdcea	-0.40012294
251	0x3ec1898a	0.37800246
252	0xbc3673a8	-0.011135973
253	0xbac91cde	-0.0015343686
254	0x3c20a24d	0.0098043205
255	0xbe18c6a1	-0.14919521

lstm.weight_hh_l0 f4 [512, 128]
0	0x3d55995b	0.052148204
1	0xbdc466f5	-0.0958995
2	0x3da2a116	0.07940881
3	0x3d92ce1f	0.07168221
4	0xbdac187f	-0.0840311
5	0x3d979bb3	0.07402744
6	0xbe290f4e	-0.16509745
7	0x3dbda105	0.09259228
8	0xbd9c81d0	-0.07641947
9	0xbc14ccc6	-0.009082025
10	0xbd60fa3c	-0.054926142
11	0xbdaec19a	-0.0853302
12	0x3d852141	0.06500483
13	0xbdd81b52	-0.10552086
14	0xbcca9910	-0.024731189
15	0xbd25b965	-0.04046001
16	0x3d6259c7	0.0552614
17	0xbdbb04f4	-0.09131804
18	0xbd37c6c5	-0.044867296
19	0xbd18da7f	-0.03731775
20	0x3de4d4a2	0.11173369
21	0x3cc5707f	0.024101494
22	0x3df9270b	0.1216565
23	0xbbf18229	-0.0073702526
24	0x3d444c85	0.047924537
25	0xbdf0907c	-0.11746308
26	0xbd4b1efa	-0.04959009
27	0x3e0b770e	0.13619635
28	0x3db2875c	0.08717224
29	0xbc08c98b	-0.008348833
30	0x3d27dd9f	0.04098284
31	0xbdf44143	-0.1192651
32	0xbc5acd5f	-0.013354628
33	0xbe190511	-0.14943339
34	0x3e0a7902	0.13522723
35	0x3e1581fd	0.14600368
36	0xbdae073f	-0.08497476
37	0xbb817d6a	-0.003951718
38	0xbd655521	-0.05598939
39	0xbdce3b4a	-0.10069902
40	0x3d328443	0.043583166
41	0x3c2aef03	0.010432961
42	0xbd92f4f7	-0.071756296
43	0xbd602895	-0.054726202
44	0x3dc99d2e	0.09844433
45	0xbe3ba416	-0.18324313
46	0x3d6dee99	0.058088873
47	0x3d1f234b	0.038852017
48	0x3dbda40d	0.09259806
49	0xbb966e5d	-0.004590793
50	0xbd15cd37	-0.03657266
51	0x3d6bad77	0.057538476
52	0x3d0c84cf	0.034306344
53	0x3d011f05	0.031523723
54	0x3bcd85f1	0.0062720706
55	0x3da6a4d2	0.08136906
56	0xbd46f4fa	-0.04857347
57	0x3cf5bebb	0.029998174
58	0xbdfc985e	-0.12333749
59	0x3dc66b97	0.0968849
60	0xbd2cce2f	-0.04218882
61	0x3cd4c64b	0.02597346
62	0x3e035bc7	0.12827979
63	0x3d5072e1	0.050890807
64	0x3da92adb	0.08260127
65	0x3d3ae73f	0.04563069
66	0xbd778949	-0.06043366
67	0x3dc890e0	0.09793258
68	0x3dc1dba5	0.09465722
69	0xbd14449b	-0.03619824
70	0xbc2aa467	-0.010415173
71	0x3e2db341	0.16962911
72	0x3d8e9d0c	0.06963548
73	0xbde47514	-0.111551434
74	0x3d928a3b	0.071552716
75	0x3db86be4	0.090049535
76	0xbce04224	-0.027375288
77	0x3d430cf7	0.047619786
78	0x3e07fec5	0.1328078
79	0xbdc5f7a7	-0.096663766
80	0xbda6ed0c	-0.08150682
81	0x3da7a3ba	0.08185525
82	0xbca4385d	-0.020046407
83	0x3e006277	0.12537561
84	0x3c00fc58	0.007872663
85	0x3d0c8c06	0.034313224
86	0x3ce5967c	0.028025858
87	0xbcdddea8	-0.02708371
88	0x3cfa63ab	0.030565104
89	0xbd2d9111	-0.042374674
90	0xbc8c4c81	-0.017126324
91	0x3ce96f54	0.028495468
92	0xbd7e073e	-0.062018625
93	0x3dd44e7e	0.10366534
94	0xbd430957	-0.04761633
95	0xbcc934ab	-0.024561247
96	0xbe174255	-0.14771397
97	0xbdba757b	-0.09104439
98	0xbddc464e	-0.10755597
99	0xbc616c4f	-0.013758733
100	0x3b961397	0.004579972
101	0x3e154783	0.14578061
102	0x3d0485b6	0.03235408
103	0xbe4c0bff	-0.19926451
104	0xbd2051e2	-0.03914059
105	0xbe4a6249	-0.19764055
106	0x3bab5bbb	0.005229441
107	0x3de419ed	0.111377575
108	0xbda96f32	-0.08273162
109	0xbddf17fb	-0.10893246
110	0x3d87ba6a	0.066273525
111	0x3ddbb5b6	0.10728018
112	0xbd5e2e5c	-0.05424343
113	0x3e082e33	0.13298874
114	0xbdb2e13f	-0.087343685
115	0x3d4ae3e1	0.04953373
116	0x3cf5be6a	0.029998023
117	0x3cca0e19	0.024664925
118	0x3ddece1b	0.10879155
119	0x3d2372aa	0.039904274
120	0xbd8829f0	-0.06648624
121	0xbe171c03	-0.1475678
122	0xbc955132	-0.018227194
123	0x3d347c62	0.044063933
124	0xbd8dda32	-0.06926383
125	0xbc13b9c5	-0.009016459
126	0x3c185c5c	0.009299364
127	0x3c826a9d	0.015919978
128	0x3d2ee978	0.042703122
129	0x3ddfbce5	0.10924701
130	0x3db8282e	0.08992039
131	0x3d6fa954	0.058511093
132	0x39a56256	0.00031544518
133	0xbcf36147	-0.029709471
134	0x3cf3823e	0.02972519
135	0x3de37ad7	0.11107414
136	0x3d6e7e2d	0.0582258
137	0x3df4d998	0.11955565
138	0xbd1f56e8	-0.03890124
139	0xbd2aff12	-0.04174716
140	0x3d0bae17	0.034101572
141	0xbd0e025b	-0.034670215
142	0xbe074ddb	-0.13213293
143	0xbd72c3b5	-0.059268672
144	0xbe54c85a	-0.20779553
145	0x3b90097a	0.004395661
146	0xbdf31bf5	-0.11870567
147	0x3dce2c58	0.10067052
148	0x3dfd259e	0.123606905
149	0xbe369be1	-0.178329
150	0xbd0e3926	-0.03472247
151	0xbe148d82	-0.14507106
152	0x3d249f2b	0.040190857
153	0xbd3cdfee	-0.046111993
154	0xbb89fd00	-0.004211068
155	0xbdd38860	-0.10328746
156	0xbda38f12	-0.07986273
157	0xbd673a3d	-0.056452025
158	0xbd78f152	-0.060777016
159	0xbd6d2c1e	-0.0579034
160	0x3d2086da	0.039191104
161	0xbe84312c	-0.25818765
162	0x3d3680c7	0.044556405
163	0x3cf92fea	0.030418355
164	0x3dcae9db	0.09907886
165	0xbd6fe1b3	-0.058564853
166	0x3e1465ba	0.1449193
167	0x3db1bae2	0.08678223
168	0x3d64c029	0.05584732
169	0x3c408d32	0.011752414
170	0x3d4cd4f3	0.05000777
171	0xbd8758e9	-0.06608755
172	0xbc320f7f	-0.010867952
173	0xbdaa9dbc	-0.08330867
174	0xbc1b048a	-0.009461531
175	0xbd893174	-0.066988856
176	0x3c9cd9c1	0.019146802
177	0x3d5d0b97	0.05396613
178	0xbcdfc596	-0.027315896
179	0xbd36dafa	-0.044642426
180	0xbdb2202b	-0.08697542
181	0xbd35dda0	-0.04440081
182	0x3d8412da	0.06448908
183	0x3d25e747	0.040503766
184	0xbd7d7a89	-0.061884437
185	0xbd81e280	-0.063420296
186	0xbe231692	-0.15926579
187	0xbd2b7f60	-0.04186952
188	0xbdd424b8	-0.10358566
189	0x3e2ad018	0.16680944
190	0x3ba68e3e	0.0050828746
191	0x3d8b62ad	0.0680593
192	0x3b39f850	0.0028376766
193	0x3d9d31cb	0.07675513
194	0xbe0a24c9	-0.13490595
195	0xbd874ff0	-0.06607044
196	0x3d531881	0.05153704
197	0xbdeb5fe6	-0.114929006
198	0x3d81eb5e	0.06343721
199	0x3e226678	0.15859401
200	0x3d85b7ce	0.065291986
201	0xbde4d370	-0.11173141
202	0x3d424c6c	0.047436163
203	0xbe898aa5	-0.2686359
204	0x3dad1963	0.08452108
205	0x3d6d37e2	0.057914622
206	0x3c8ad336	0.016946416
207	0xba316007	-0.00067663233
208	0x3cc7fced	0.024412597
209	0xbaefc7bb	-0.0018293777
210	0xbcab3dd0	-0.020903498
211	0x3cdd3b3a	0.02700578
212	0x3d093c97	0.03350505
213	0x3a148d00	0.00056667626
214	0xbd388b32	-0.045054622
215	0x3bda88f9	0.0066691604
216	0x3d99799a	0.07493897
217	0xbdc99f5f	-0.09844851
218	0x3dad4cee	0.08461939
219	0x3c035d18	0.008017801
220	0x3d15359e	0.036428086
221	0xbda00aeb	-0.078145824
222	0xbdc5ddf9	-0.096614785
223	0xbdc4428b	-0.095830046
224	0x3d7a788d	0.061150122
225	0x3c0864be	0.0083248
226	0x3da0fa3d	0.07860229
227	0xbdf40ec5	-0.119168796
228	0xbdef9731	-0.11698759
229	0x3de1ddf8	0.11028665
230	0xbcb3762d	-0.021906937
231	0x3da400b9	0.0800795
232	0x3dccc7f0	0.099990726
233	0xbda78ac7	-0.081807666
234	0xbd6e7650	-0.0582183
235	0x3d2032b5	0.039110858
236	0x3dc3a9fb	0.095539056
237	0xbda783ea	-0.081794575
238	0xbced2119	-0.028946446
239	0xbdf40edf	-0.11916899
240	0x3e1e7a70	0.15476394
241	0x3bc9189d	0.0061369673
242	0x3e1c6529	0.15272965
243	0xbd8293bc	-0.06375834
244	0x3d87be3c	0.06628081
245	0x3c2a8099	0.010406637
246	0xbd9d19b8	-0.07670921
247	0x3de8d98c	0.11369619
248	0x3e0e2255	0.13880284
249	0x3dd5bcf4	0.104364306
250	0x3da3606a	0.07977374
251	0xbc846fe9	-0.016166644
252	0x3d767ebd	0.06017946
253	0x3c7f6e18	0.015590213
254	0x3d8eb988	0.06968981
255	0xbda81fa2	-0.082091585

lstm.bias_ih_l0 f4 [512]
0	0xbd87ddc5	-0.06634096
1	0xbcd0295e	-0.02541035
2	0xbe15ae5e	-0.14617297
3	0xbcae57cc	-0.0212821
4	0xbd6bb2ec	-0.05754368
5	0xbd8382e9	-0.064214535
6	0x3cb4e9a4	0.022084065
7	0xbd18284a	-0.037147798
8	0xbda7296f	-0.081622
9	0xbd2a6406	-0.041599296
10	0xbe195d2c	-0.14976948
11	0x3e01ca3b	0.12674801
12	0xbcaa283d	-0.02077114
13	0x3c6a2f69	0.01429353
14	0xbda5ffb7	-0.08105414
15	0x3d638edb	0.05555616
16	0x3cdd6ae1	0.027028503
17	0x3bd15c2c	0.0063891616
18	0xbde38058	-0.11108464
19	0x3d3494f8	0.04408738
20	0xbd8b94f2	-0.068155184
21	0xbcb6f1ba	-0.022332061
22	0xbd018b0f	-0.031626757
23	0xbc8c976d	-0.01716205
24	0xbd0de440	-0.034641504
25	0xbd94c816	-0.07264726
26	0x3cd7f959	0.026364015
27	0x3cb876b2	0.022517536
28	0xbd644746	-0.055732034
29	0xbd1b4a6d	-0.037912775
30	0xbde0cb9b	-0.10976335
31	0x3cf2b796	0.029628556
32	0x3db25801	0.08708192
33	0x3d996c89	0.074914046
34	0x3cf678d0	0.030086905
35	0xbc9163e6	-0.01774783
36	0xbd535af0	-0.051600397
37	0xbd0090e2	-0.03138817
38	0x3d0581f7	0.032594647
39	0xbd53e924	-0.051736012
40	0x3d46e0ab	0.048554104
41	0x3e09b94d	0.13449593
42	0xbdbdac80	-0.092614174
43	0x3c9b7458	0.018976375
44	0xbd8235f0	-0.06357944
45	0xbde53db2	-0.11193408
46	0x3c9be58c	0.019030355
47	0xbd2aaad6	-0.041666828
48	0xbcf1c5f9	-0.029513346
49	0x3d819e70	0.06329048
50	0xbdc58719	-0.096449085
51	0x3cf14b6d	0.029454911
52	0x3c903cba	0.017607082
53	0x3c557114	0.013027448
54	0xbe125762	-0.14291146
55	0x3c2ade95	0.010429044
56	0xbdcf1c28	-0.10112792
57	0x3d72609b	0.05917416
58	0x3d785eff	0.06063747
59	0xbd25d27e	-0.040483944
60	0xbcb2d07a	-0.021827925
61	0x3bb61e6e	0.0055578267
62	0x3d6812d3	0.056658577
63	0xbce6a56e	-0.028155055
64	0x3d54ed4a	0.05198411
65	0xbc5fa004	-0.013648991
66	0x3ddfcbca	0.109275416
67	0xbc470f86	-0.012149697
68	0x3b882f01	0.004155994
69	0x3cc2667a	0.023730505
70	0x3c089495	0.008336206
71	0xbc0502a8	-0.008118309
72	0xbc8c8e7f	-0.017157791
73	0x3cab91ba	0.020943511
74	0x3e00a174	0.1256159
75	0x3d4f5581	0.050618652
76	0xbc955da2	-0.018233124
77	0x3cf337d4	0.029689707
78	0xbe229d0c	-0.15880221
79	0x3e1a7879	0.15085019
80	0x3c96efd0	0.018424898
81	0xbd9b2526	-0.07575445
82	0x3b2fc348	0.0026819278
83	0xbd948b61	-0.07253147
84	0xbdc3ca1a	-0.09560032
85	0xbd441a7e	-0.047876827
86	0xbd97a483	-0.07404425
87	0xbd8427a9	-0.06452877
88	0xbc422cb7	-0.011851481
89	0x3cf73c4d	0.03018012
90	0xbd9bef63	-0.07614019
91	0xbd45b0ee	-0.048264436
92	0xbda7a7cc	-0.081863016
93	0xbd56a982	-0.05240775
94	0x3cfe1fa4	0.031020947
95	0xbdcb0c2b	-0.0991443
96	0xbd429368	-0.04750386
97	0xbceda809	-0.02901079
98	0xbc03a7c9	-0.008035609
99	0xbd38eac0	-0.04514575
100	0x3d060825	0.03272261
101	0x3d58dae7	0.052943137
102	0xbda661f6	-0.08124153
103	0x3d621fd6	0.055206142
104	0x3d533107	0.051560428
105	0x3d6b4eb4	0.057448104
106	0xbd0d11ce	-0.034440808
107	0xbc63029c	-0.013855603
108	0x3c131f18	0.008979581
109	0xbdba7e6a	-0.09106143
110	0xbe1cb419	-0.15303077
111	0xbd66e513	-0.056370806
112	0x3ca831de	0.020531591
113	0xbde3a831	-0.11116064
114	0xbd6a2995	-0.057168562
115	0x3c890b8c	0.016729139
116	0x3c82f719	0.015986966
117	0xbb186055	-0.0023250778
118	0x3dbaddab	0.09124311
119	0x3d5ee4d2	0.05441744
120	0xbd4cf297	-0.05003604
121	0xbd83df24	-0.06439045
122	0xbbf1a93b	-0.00737491
123	0xbd44c8e5	-0.04804315
124	0xbc8be86b	-0.017078599
125	0xbd97ed23	-0.07418277
126	0x3d024bbc	0.031810507
127	0x3d94454e	0.07239781
128	0x3daf001c	0.08544943
129	0xbd46fff1	-0.04858393
130	0x3d28bc8a	0.04119543
131	0xbd77bc44	-0.06048228
132	0x3bfdc6bb	0.007744638
133	0xbc852a73	-0.016255593
134	0x3db4b044	0.088226825
135	0x3d121497	0.035664167
136	0x3dce9f3c	0.10088965
137	0x3d8bb260	0.06821132
138	0x3ca85f19	0.020553159
139	0x3d4e7bf6	0.050411187
140	0x3e183277	0.14863001
141	0x3b648647	0.0034870075
142	0x3df17a36	0.11790888
143	0x3e29411a	0.1652874
144	0xbd1a42f2	-0.0376615
145	0x3e226408	0.15858471
146	0x3ce8651c	0.028368525
147	0x3e2e0864	0.16995388
148	0xbbb06c77	-0.0053840238
149	0xbb965abf	-0.0045884545
150	0x3d5c943f	0.053852316
151	0xbbae667f	-0.005322277
152	0x3e2fa550	0.17152905
153	0x3cbf3744	0.023341782
154	0x3d21e9d7	0.039529648
155	0x3d06edc9	0.032941613
156	0xbc870cf3	-0.016485667
157	0xbbf5e027	-0.0075035277
158	0x3d00f90b	0.031487506
159	0x3dcd7fdc	0.10034153
160	0x3db093dc	0.08621952
161	0x3e2be5a4	0.1678682
162	0x3df9bbcd	0.12194023
163	0xbd245fc6	-0.0401304
164	0xbd39961f	-0.045309182
165	0x3dcadee3	0.099057935
166	0x3e1130b6	0.14178738
167	0x3cd58898	0.02606611
168	0x3dfd9b75	0.12383167
169	0x3e081d20	0.1329236
170	0x3d9dcd01	0.07705117
171	0x3d88df1d	0.066831805
172	0x3e0514d0	0.1299622
173	0x3d6fb90b	0.05852608
174	0x3db062dc	0.08612606
175	0x3d83249f	0.06403469
176	0x3d4f32de	0.05058562
177	0x3d5f8f88	0.05458024
178	0x3d9312d0	0.071813226
179	0x3dd369e7	0.10322934
180	0xbc53012b	-0.012878696
181	0xbcdc734e	-0.02691045
182	0xbd9d4d62	-0.07680775
183	0x3e0fd0cb	0.14044492
184	0x3df24844	0.1183019
185	0x3dc8ce4b	0.09804972
186	0xbd84aa3c	-0.06477782
187	0x3d85bf71	0.06530655
188	0x3cd156ce	0.025554087
189	0x3d66b598	0.056325525
190	0x3d67f4c8	0.056629926
191	0xbc038701	-0.008027793
192	0x3d94a2d5	0.0725762
193	0x3e0da658	0.13832986
194	0x3e15925d	0.14606614
195	0x3e3801cb	0.17969434
196	0x3caae4e9	0.020861106
197	0x3d6c2e7b	0.057661515
198	0x3db02263	0.08600309
199	0x3cf3445f	0.029695688
200	0x3d2dab84	0.0423999
201	0x3d879c11	0.06621564
202	0x3d8bd3b1	0.06827486
203	0x3e7e65a7	0.24843465
204	0x3e1a6a65	0.15079649
205	0xbd48fad8	-0.04906735
206	0x3cf88103	0.030334955
207	0x3dfca7be	0.12336682
208	0x3d9cf4a8	0.07663852
209	0x3d26c847	0.040718343
210	0x3e72542e	0.23664925
211	0xbcd31942	-0.02576888
212	0x3ba89745	0.005144986
213	0x3d962fa4	0.073333055
214	0x3db70b65	0.0893772
215	0x3b8f3dc3	0.0043713762
216	0xbc88993d	-0.016674632
217	0x3d2d4ce5	0.04230966
218	0x3db0ec6b	0.08638843
219	0x3d7cc432	0.061710544
220	0x3d462ab5	0.048380572
221	0xbc83d0d3	-0.016090786
222	0x3cdd6fc5	0.027030835
223	0x3cec67aa	0.028858025
224	0xbc31449e	-0.010819582
225	0x3d576e94	0.05259569
226	0x3e04d127	0.1297041
227	0x3d2b6da9	0.041852627
228	0xbc53d48b	-0.012929092
229	0x3e61ea96	0.22062144
230	0xbd371661	-0.044699077
231	0x3dab4926	0.08363561
232	0x3ca181f9	0.019715296
233	0x3d97ead0	0.07417834
234	0xbc902dff	-0.017600058
235	0x3b8b688d	0.004254407
236	0x3dead8ec	0.11467156
237	0xbca862f5	-0.020554999
238	0x3ca35607	0.019938482
239	0x3d20a3d7	0.03921875
240	0x3e6208fc	0.2207374
241	0x3c67c5e5	0.014146303
242	0xbd8c3177	-0.06845372
243	0x3e1e27cd	0.1544487
244	0xbcbb20c8	-0.02284278
245	0x3c2a3c3c	0.010390338
246	0x3d791dc1	0.06081939
247	0x3e45d649	0.19320025
248	0x3dccf474	0.10007563
249	0x3cc01e86	0.023452055
250	0x3d15a1f0	0.03653139
251	0xbd437d82	-0.047727115
252	0x3d7225a7	0.05911794
253	0xbce29e51	-0.027663382
254	0x3d3fd7e9	0.046836767
255	0x3d0d437e	0.034488194

lstm.bias_hh_l0 f4 [512]
0	0x3c248a8a	0.010042796
1	0xbd6c40ff	-0.057679173
2	0xbdcd308d	-0.10019026
3	0xbdd4f4dc	-0.10398266
4	0xbc3f76c9	-0.011686035
5	0x3d8023e7	0.06256848
6	0x3df4f0af	0.11959969
7	0xbe158855	-0.14602788
8	0xbdb85601	-0.09000779
9	0xbd0ffb7a	-0.035151936
10	0xbdc1ee9c	-0.09469339
11	0x3c970844	0.018436559
12	0x3dd35b69	0.103201695
13	0xbe0e7eb4	-0.13915521
14	0x3db1ce48	0.08681923
15	0x3b6464f4	0.0034850212
16	0x3d545e0e	0.05184751
17	0x3d2f02e0	0.04272735
18	0xbd320843	-0.04346491
19	0x3daa7019	0.08322162
20	0xbb84ae1d	-0.0040490762
21	0x3df5ad09	0.119958945
22	0x3dcc958c	0.09989461
23	0xbd8c7bad	-0.06859527
24	0x3dd50355	0.10401026
25	0xbdd10ad0	-0.102071404
26	0x3dc67d35	0.0969185
27	0x3e0879f9	0.13327779
28	0x3ca6bedd	0.020354683
29	0xbdcf0c3a	-0.10109754
30	0xbdab697f	-0.08369731
31	0xbcb6dec8	-0.022323027
32	0x3c0d4b91	0.0086239735
33	0x3ce5bf50	0.028045326
34	0xbdb3f8a5	-0.087876596
35	0xbc2fe0d3	-0.010734755
36	0xbd92e025	-0.071716584
37	0x3c9b97fc	0.01899337
38	0x3c54ad6a	0.012980798
39	0xbd8dc453	-0.069222115
40	0x3de20823	0.11036708
41	0x3c012852	0.007883148
42	0xbc565b1c	-0.013083246
43	0x3d34dcbd	0.044155825
44	0xbdaa8e3a	-0.08327909
45	0xbd094599	-0.03351364
46	0x3e00126c	0.12507027
47	0x3d7bf662	0.061514266
48	0x3d0e3537	0.03471872
49	0x3d899b0c	0.06719026
50	0x3d94a329	0.07257683
51	0xbd2d81bd	-0.042360056
52	0xbb1442a7	-0.0022622736
53	0xbbb59d91	-0.005542465
54	0xbde2e3a4	-0.11078575
55	0x3d50acfe	0.05094623
56	0x3c4963a1	0.01229182
57	0x3b91a445	0.0044446313
58	0xbd94d0ef	-0.072664134
59	0x3d44a57c	0.04800938
60	0xbdbd339a	-0.09238358
61	0xbd719029	-0.058975372
62	0xbb517420	-0.0031960085
63	0xbdb3dff2	-0.087829486
64	0x3d85e0a4	0.065369874
65	0xbd847322	-0.06467272
66	0xbd136377	-0.03598353
67	0xbd044b2a	-0.032298245
68	0xbdd51841	-0.10405017
69	0x3dad8bd8	0.08473939
70	0xbdec9938	-0.11552662
71	0x3d2274fb	0.039662343
72	0x3d10dc02	0.035366066
73	0xbb98a4ce	-0.004658318
74	0x3d81fd41	0.063471325
75	0x3d2d95ff	0.042379376
76	0x3da98128	0.08276588
77	0xbcf1e1ef	-0.029526679
78	0xbe0acdaa	-0.13555017
79	0x3d9c9262	0.07645108
80	0x3e166ca2	0.14689878
81	0xbdd1c743	-0.10243084
82	0x3ab76532	0.001399195
83	0xbc8ce38a	-0.017198343
84	0xbd4e8247	-0.05041721
85	0xbbf2f432	-0.0074143643
86	0xbd8a4fb7	-0.06753486
87	0xbe2a0b2c	-0.16605824
88	0xbe0306b1	-0.12795521
89	0xbdc18b0f	-0.094503514
90	0x3ba54e4a	0.005044733
91	0xbc8638b8	-0.016384467
92	0xbdc34ab0	-0.0953573
93	0xbdaeb442	-0.08530475
94	0x3d1973c9	0.037463937
95	0xbce7c344	-0.028291352
96	0x3be58c75	0.007005269
97	0xbe12cc51	-0.14335753
98	0x3c0daab7	0.008646659
99	0xbc2b3376	-0.010449281
100	0x3da77403	0.08176424
101	0x3bb9eed3	0.005674222
102	0xbd91aec2	-0.071134105
103	0xb9e29f1f	-0.00043224634
104	0xbc72e48b	-0.014824997
105	0xbdb572e3	-0.088598035
106	0x3d2aea0f	0.041727122
107	0xbd70aec6	-0.058760427
108	0xbd626e46	-0.055280946
109	0xba18e2b5	-0.0005832122
110	0x3c26db52	0.010184126
111	0x3cd1f4bd	0.025629396
112	0x3c122dd4	0.008922059
113	0xbda99dfb	-0.082820855
114	0xbded8521	-0.11597658
115	0xbcf2382a	-0.029567797
116	0xbd65d532	-0.056111522
117	0xbd9fc984	-0.07802108
118	0x3cd2a5ee	0.025713887
119	0x3dbfe8de	0.09370588
120	0x3d40c6a1	0.047064427
121	0xbdebd403	-0.115150474
122	0x3db3d5bd	0.08781002
123	0xbda2a908	-0.079423964
124	0xbdabb70c	-0.08384523
125	0xbd0ff998	-0.03515014
126	0xbd100fad	-0.0351712
127	0xb902ec4c	-0.00012485794
128	0x3defc236	0.11706965
129	0x3d757bc1	0.059932474
130	0x3cb732a1	0.022363009
131	0xbce7bb48	-0.028287545
132	0x3db55a87	0.08855157
133	0x3dc03b44	0.09386304
134	0x3de54db8	0.11196464
135	0xbd1d6257	-0.038423862
136	0x3dd81c30	0.10552251
137	0x3e4e793d	0.20163436
138	0xbcea0795	-0.028568069
139	0x3d5d8864	0.05408515
140	0x3e53871e	0.20657012
141	0xbc8f9b33	-0.01753006
142	0x3e30faa3	0.1728311
143	0x3e3448a0	0.17605829
144	0x3daa80bd	0.08325336
145	0x3db9925d	0.0906112
146	0x3e33b893	0.17550878
147	0x3da11bd2	0.078666344
148	0x3df88892	0.12135424
149	0x3b42273c	0.0029625436
150	0x3d55073b	0.05200885
151	0x3daf17de	0.08549474
152	0x3e109a6b	0.14121406
153	0x3d699516	0.057026945
154	0x3e270e83	0.1631413
155	0x3cbf7efc	0.02337598
156	0x3daaf38a	0.08347233
157	0xbdc53b85	-0.09630493
158	0x3e07aec1	0.13250257
159	0x3c18bf3f	0.00932294
160	0x3dd500c8	0.1040054
161	0x3e04a812	0.12954739
162	0xbbc7cd78	-0.006097492
163	0x3de2716e	0.11056791
164	0xbdadc5bf	-0.08484983
165	0xbd5cc1dc	-0.053895816
166	0x3e0a38d9	0.13498248
167	0x3e2540b6	0.16137967
168	0x3e37e1b0	0.17957187
169	0x3e065d71	0.13121583
170	0xbb2be302	-0.0026227836
171	0x3df77598	0.12082976
172	0x3dc454d1	0.0958649
173	0xbcdb2c22	-0.026754443
174	0x3e5b8154	0.21436054
175	0xbbc1b3e6	-0.005911338
176	0x3d8aafb7	0.06771796
177	0x3e22a608	0.15883648
178	0x3d061a25	0.032739777
179	0x3e0bd01a	0.13653603
180	0x3dfba1b5	0.122867025
181	0xbc762a17	-0.015024683
182	0xbd72aec1	-0.05924869
183	0x3cec3ee3	0.02883858
184	0x3ddd7dfc	0.10815045
185	0x3dba55a3	0.09098365
186	0xbb4a014e	-0.0030823532
187	0x3d9fd5d4	0.07804456
188	0x3d27f7e8	0.041007906
189	0x3ceb6688	0.028735414
190	0x3dda6c58	0.10665196
191	0x3d9db746	0.07700972
192	0x3d6975a1	0.056996945
193	0x3d2bf2da	0.04197965
194	0x3d63127c	0.05543755
195	0x3d802c5e	0.06258462
196	0xbd078fda	-0.033096172
197	0x3d32b2f9	0.043627713
198	0x3dac1e81	0.08404256
199	0x3d075c32	0.03304691
200	0x3d907125	0.070528306
201	0x3d246a8e	0.04014068
202	0x3df88e4c	0.12136516
203	0x3e85ea4c	0.26155317
204	0x3e152f58	0.14568841
205	0xbd82ca80	-0.0638628
206	0xbdccc4df	-0.09998488
207	0x3e32708b	0.17425744
208	0x3e3f75c1	0.18697263
209	0x3d95e315	0.07318703
210	0x3e2ab8f2	0.16672114
211	0x3dbeaa2c	0.093098015
212	0x3e169ca3	0.1470819
213	0x3dd7ab66	0.105307385
214	0x3dec3efb	0.1153545
215	0xbdb36924	-0.08760288
216	0xbbc49b28	-0.0059999414
217	0x3bc0f46b	0.005888512
218	0xbd8261c9	-0.06366307
219	0x3cec26dc	0.028827123
220	0xbcbb9450	-0.02289787
221	0x3da3d7e8	0.08000165
222	0x3d5c9241	0.053850416
223	0x3d5b8bfc	0.053600296
224	0x3d4d6766	0.050147437
225	0xbdc1870a	-0.09449585
226	0x3e416077	0.18884455
227	0xbce8bec3	-0.028411275
228	0x3c6b5c3d	0.014365253
229	0x3e1240a5	0.14282472
230	0xbc397eb6	-0.011321714
231	0x3dc77b88	0.097403586
232	0x3e0d9b7d	0.13828845
233	0x3e00f814	0.12594634
234	0x3c53276c	0.012887817
235	0xbca1d6bd	-0.019755716
236	0x3dd0ad88	0.101893485
237	0xbc52d479	-0.01286804
238	0x3da38e1c	0.079860896
239	0x3e279c40	0.16368198
240	0x3ddd0cd3	0.10793462
241	0x3dd63824	0.10459927
242	0xbd5a820e	-0.053346686
243	0x3db026fd	0.086011864
244	0x3df6bc67	0.12047654
245	0xbd1802e0	-0.037112117
246	0x3dc0759c	0.09397432
247	0x3e418553	0.18898515
248	0x3e1e518d	0.15460797
249	0x3d200007	0.039062526
250	0x3b82c11f	0.003990307
251	0x3d90af92	0.070647374
252	0x3d67a237	0.056551185
253	0x3d812392	0.063056126
254	0x3e0083bb	0.12550251
255	0x3d285286	0.041094325

fc.weight f4 [26, 128]
0	0x3e9a48de	0.30133718
1	0x3e58adb6	0.21160015
2	0x3db669f6	0.08906929
3	0xbd65be57	-0.056089725
4	0x3e91e23d	0.2849292
5	0xbe27fe3a	-0.16405573
6	0x3e7e0c86	0.24809465
7	0xbe180559	-0.1484579
8	0x3e8e265a	0.27763635
9	0xbbd12dfc	-0.0063836556
10	0xbe863e8e	-0.262196
11	0x3e8be1ae	0.27320617
12	0xbdfc2fab	-0.123137794
13	0x3eee7383	0.46572503
14	0xbd1fcab2	-0.039011665
15	0xbe40a3bf	-0.18812464
16	0xbdd355bf	-0.10319089
17	0xbea3a43e	-0.31961244
18	0xbec90a9f	-0.39265916
19	0x3e557e01	0.20848848
20	0x3ca040a5	0.019562075
21	0xbe06e64b	-0.13173787
22	0xbd7210ee	-0.059098177
23	0xbeb73233	-0.35780486
24	0xbe921fad	-0.28539792
25	0xbe5524a0	-0.20814753
26	0x3e3634e9	0.17793621
27	0xbe599957	-0.21249901
28	0x3e963dea	0.29344112
29	0x3c2f3ab3	0.010695147
30	0x3e51f14f	0.20502208
31	0x3ddf6dc5	0.10909609
32	0xbea9887f	-0.3311195
33	0x3e4c146b	0.19929664
34	0xbee0ddb0	-0.43919134
35	0xbec3f05e	-0.38269323
36	0x3e1c50f2	0.15265253
37	0xbcae7736	-0.021297079
38	0x3dd25b35	0.102713026
39	0x3d2b812d	0.04187124
40	0xbde4db8f	-0.1117469
41	0x3ed0890a	0.40729553
42	0x3eb91319	0.36147383
43	0xbe705864	-0.23471218
44	0xbd962428	-0.07331115
45	0xbe4d83f8	-0.20069873
46	0xbbdca94d	-0.0067340494
47	0xbe06e88a	-0.13174644
48	0xbe370205	-0.17871864
49	0xbe084e45	-0.13311107
50	0xbdc20fc2	-0.09475662
51	0xbd21cfbb	-0.039504748
52	0x3e426537	0.18983923
53	0xbd0da583	-0.034581672
54	0x3e5f4b6f	0.2180612
55	0xbe6b4b37	-0.22977911
56	0xbe076e5a	-0.1322569
57	0x3d149466	0.036274336
58	0x3dde069c	0.108411044
59	0xbe4b42a1	-0.19849636
60	0x3e148b62	0.14506295
61	0xbd9abc58	-0.07555455
62	0xbe943327	-0.28945276
63	0x3e57d687	0.2107793
64	0x3e92b124	0.28650773
65	0x3b019436	0.0019772178
66	0xbe829b3b	-0.25509056
67	0x3d5a3746	0.05327537
68	0xbe698311	-0.22803904
69	0xbca68125	-0.020325253
70	0x3e978cd9	0.29599646
71	0xbe4226dc	-0.18960136
72	0x3e3526ec	0.17690629
73	0xbc7a131a	-0.015263343
74	0xbe068de4	-0.13140064
75	0xbe34ab44	-0.17643458
76	0x3e1bd6dc	0.15218681
77	0xbd50eb0c	-0.05100541
78	0x3d29a67b	0.041418534
79	0x3e764bbf	0.24052332
80	0x3e345b20	0.17612886
81	0xbd744768	-0.05963841
82	0x3e2b0792	0.16702107
83	0xbda69586	-0.08133988
84	0xbd875888	-0.06608683
85	0x3e0fc04c	0.14038199
86	0xbe739af0	-0.23789573
87	0x3dcf165d	0.10111687
88	0xbe1ec846	-0.15506086
89	0x3dded5c4	0.10880616
90	0x3d7afe15	0.061277468
91	0x3dea7581	0.11448193
92	0xbc9c91d6	-0.019112509
93	0x3cf3f364	0.029779144
94	0xbd75e97b	-0.060037117
95	0xbe362d1b	-0.17790644
96	0x3e424ce9	0.18974651
97	0x3c1fafc3	0.009746495
98	0xbd957cc6	-0.07299189
99	0x3e08b3e4	0.13349873
100	0xbe094e15	-0.13408692
101	0x3e287e9d	0.16454549
102	0xbe59282b	-0.21206729
103	0x3dad5949	0.084642954
104	0xbd41165d	-0.047140468
105	0x3ecec9dc	0.4038838
106	0xbe76d4c7	-0.24104606
107	0xbe3cb494	-0.1842826
108	0xbc91fee4	-0.017821737
109	0x3e849db5	0.2590157
110	0xbf0ec2d5	-0.5576604
111	0x3e3e390e	0.18576452
112	0x3e62e9bf	0.2215948
113	0xbdd943b2	-0.10608615
114	0x3ebca630	0.3684554
115	0xbe1f451c	-0.15553707
116	0xbdf134aa	-0.11777623
117	0x3e92fa13	0.28706416
118	0xbde60661	-0.112316854
119	0xbe911eb2	-0.2834373
120	0x3de8f9ae	0.113757476
121	0xbe4f35c6	-0.20235357
122	0x3e60f550	0.2196858
123	0x3ed1d32d	0.40981427
124	0xbe359982	-0.1773434
125	0xbcc34d7f	-0.023840664
126	0x3e548222	0.20752767
127	0xbe81ecbf	-0.25375935
128	0x3e20300c	0.15643328
129	0x3d8473c2	0.064673916
130	0xbe3c7fe4	-0.18408161
131	0x3e1364ed	0.14393969
132	0x3e8bbd6a	0.2729295
133	0x3e273fc8	0.16332924
134	0xbda1ba00	-0.07896805
135	0x3e35ccb4	0.1775387
136	0xbd0dad38	-0.034589022
137	0xbe6a854f	-0.22902416
138	0x3eaff0ac	0.34363306
139	0xbe30aebb	-0.17254154
140	0xbc8aaa50	-0.016926914
141	0x3e8fc175	0.28077284
142	0x3e0b1cae	0.13585159
143	0x3d257d59	0.040402744
144	0xbd38139c	-0.044940576
145	0xbd9b4f8b	-0.07583531
146	0x3e6eb9a1	0.23313
147	0x3d7ba37e	0.061435215
148	0x3d23d589	0.039998565
149	0x3ee23e96	0.44188374
150	0x3dd6db39	0.10491032
151	0x3e69dd06	0.2283822
152	0xbd2d2aaf	-0.042277034
153	0xbeaa6350	-0.33278894
154	0xbe884098	-0.2661178
155	0x3e96026b	0.2929872
156	0x3d124c75	0.035717446
157	0x3e2b5579	0.16731824
158	0x3e4e0b76	0.2012156
159	0xbd3c7501	-0.04601002
160	0xbca075de	-0.019587453
161	0x3c3fbd3a	0.01170283
162	0x3de38a76	0.11110394
163	0x3e43cc40	0.19120884
164	0xbe81ef58	-0.25377917
165	0x3d911ea2	0.07085921
166	0x3d4aa068	0.04946938
167	0xbde54b1d	-0.11195967
168	0xbe5d73e1	-0.21626236
169	0x3e06f1bc	0.13178152
170	0x3e86688f	0.26251647
171	0xbe157901	-0.1459694
172	0xbcdc7357	-0.026910467
173	0xbdbef1d7	-0.09323471
174	0x3da79f90	0.08184731
175	0x3dd7a80b	0.105300985
176	0x3c6788cc	0.014131736
177	0x3e757829	0.23971619
178	0xbc624581	-0.013810516
179	0x3c270f0e	0.01019646
180	0x3d1fbe71	0.03899998
181	0x3cbdb460	0.023157299
182	0xbe264ae0	-0.162395
183	0x3e8a4e11	0.27012685
184	0x3eba8480	0.36429214
185	0x3dd2ebd1	0.10298885
186	0x3e31261d	0.17299695
187	0xbeb33917	-0.35004494
188	0xbe734391	-0.23756243
189	0xbdd25647	-0.10270362
190	0x3e124d06	0.14287195
191	0xbdd810ea	-0.10550101
192	0xbe1ee2f4	-0.15516263
193	0x3d781a13	0.06057174
194	0xbd4926a3	-0.049109112
195	0x3dc7d8e6	0.09758167
196	0xbeace9f8	-0.33772254
197	0x3de12f61	0.10995365
198	0xbe76efb3	-0.24114875
199	0x3c82cabe	0.015965816
200	0xbe9fe36d	-0.312282
201	0x3db97e33	0.09057274
202	0x3dea24ed	0.11432824
203	0xbe8b3cea	-0.2719491
204	0xbe045521	-0.12923099
205	0x3e474a74	0.19461995
206	0x3d8dd4a4	0.069253236
207	0xbe98dad4	-0.29854453
208	0xbea06645	-0.31328025
209	0x3e72d8f2	0.2371557
210	0x3ee8e08a	0.4548381
211	0xbeaa0ee1	-0.33214477
212	0xbe887a68	-0.2665589
213	0xbddb330e	-0.10703097
214	0xbec4a8ee	-0.38410133
215	0xbded5aff	-0.11589622
216	0xbcf9f526	-0.030512404
217	0xbd4a428a	-0.049379863
218	0xbe9971da	-0.29969674
219	0xbc987a6f	-0.018613068
220	0xbd0c2f68	-0.034224898
221	0xbe02031b	-0.12696497
222	0x3d07dfa6	0.033172272
223	0xba82eecc	-0.000998938
224	0xbc9de371	-0.019273492
225	0xbe90a3f1	-0.28250077
226	0x3eefe0d7	0.46851227
227	0x3da09669	0.078411885
228	0xbea695ef	-0.32536265
229	0x3e13bf60	0.14428473
230	0x3d9100d8	0.07080239
231	0xbd18db40	-0.037318468
232	0xbd15b4cc	-0.036549374
233	0xbcf74bb7	-0.03018747
234	0x3e065a58	0.13120401
235	0xbf303adb	-0.68839806
236	0x3e329da0	0.17442942
237	0xbe49ce80	-0.1970768
238	0xbe849aa4	-0.2589923
239	0x3ce6538c	0.02811601
240	0x3e0f343d	0.13984771
241	0x3e0b861d	0.13625379
242	0xbda382b7	-0.07983916
243	0x3d6e0c6c	0.058117315
244	0xbe4d0373	-0.20020847
245	0x3c9ab794	0.018886365
246	0x3e025d32	0.12730864
247	0xbe4c8b79	-0.1997508
248	0x3d5a132d	0.053240944
249	0xbddfc53f	-0.109262936
250	0xbdb5d183	-0.08877852
251	0x3e27a2b9	0.16370668
252	0xbb24ee51	-0.0025166462
253	0x3e2cf675	0.16890891
254	0xbe555c95	-0.20836098
255	0x3df51d1d	0.119684435

fc.bias f4 [26]
0	0xbe853b52	-0.2602182
1	0xbd5dcab4	-0.05414839
2	0xbd6406c1	-0.055670504
3	0xbe2d9f51	-0.16955306
4	0xbe2b21c3	-0.16712098
5	0xbc7d6dfa	-0.015468115
6	0x3ce6e7ba	0.028186668
7	0xbdf90e0d	-0.12160883
8	0xbe06367d	-0.13106723
9	0xbde14d93	-0.11001124
10	0xbcd6ba0f	-0.026211767
11	0xbdb30c19	-0.08742542
12	0xbd305a25	-0.04305472
13	0x3ba1cdab	0.0049378476
14	0xbdb0eb15	-0.08638588
15	0xbce4e94b	-0.027943274
16	0x3c307cc6	0.010771936
17	0xbe866670	-0.2625003
18	0xbe02ec56	-0.12785468
19	0xbe75a063	-0.23986964
20	0xbdbb81bc	-0.09155604
21	0xbe1c9d57	-0.15294395
22	0xbce2d541	-0.027689578
23	0xbd66b2f3	-0.056323003
24	0xbe322030	-0.17395091
25	0x3d51761e	0.051138036
