trained_lstm_model.pth (torch, 940882 bytes, 10 tensors)

lstm.weight_ih_l0 f4 [512, 63]
-0.06998592 0.033008076 0.041104145 -0.008256991 0.028997654 0.03992523 -0.008265905 -0.055213448
0.14129627 -0.0036533838 -0.07147207 0.19745675 0.1330233 -0.086459555 0.08390365 -0.013572488
0.10365915 0.13837668 -0.047055196 -0.046564624 0.073668756 0.1393908 -0.028528837 -0.012082402
0.20640555 0.10142883 0.08001057 -0.099786475 0.028558575 -0.08683281 0.2044492 0.074240424
0.10940353 0.17868795 0.10575995 0.017453145 0.17124546 0.05139436 0.016580608 0.10385385
-0.065424986 -0.0262196 -0.0054047806 0.021673756 0.07450026 0.16522937 0.009597631 0.05968511
0.1608217 0.100329004 -0.084923856 0.11055832 -0.07426467 0.031569116 0.09995033 -0.043004118
-0.033091772 0.13081062 0.012825853 0.101105206 0.100019425 0.043094985 0.02453374 0.05019187
-0.03250899 -0.0418713 -0.05948879 -0.061392058 -0.050117385 0.021537421 -0.013293687 0.03648715
-0.080616176 0.1736197 -0.044789385 -0.23544426 0.057144675 0.052794386 -0.037702788 0.12150151
-0.11930536 0.027818486 -0.07582662 -0.046301562 0.2462186 0.025329214 -0.07646913 0.27228147
-0.07070043 -0.08709073 0.05483648 0.082810946 0.04406455 -0.12204129 0.057678383 0.088265374
-0.106431216 0.047246084 0.069054894 -0.021649124 -0.11094995 0.046400946 0.004323464 -0.038975827
0.08135235 0.038147636 0.013017918 0.034091618 -0.09982338 -0.16248049 0.012988463 -0.05209154
-0.096369945 -0.023109624 -0.0012393212 -0.0691861 0.09497482 -0.048089016 -0.05027793 0.08174554
0.02237225 0.09172212 0.05807103 0.1154951 0.18077466 0.03303946 -0.09636569 0.021148272
0.09137426 -0.13928033 -0.04472816 0.0405096 0.031297047 -0.028709386 0.13718283 0.049949788
0.056388 0.02720055 0.049576614 0.10654081 0.120625086 -0.093455926 0.14123952 0.07066734
-0.0011458248 -0.022423942 0.17008708 0.07444085 -0.13558097 0.15126002 0.12950768 -0.030912848
0.14073263 -0.009193825 0.17852136 -0.04931422 0.1377076 0.08177625 0.059508067 0.07770011
0.100769006 0.012535364 0.0975352 0.047377285 0.098558605 0.023935493 -0.010371135 -0.12329002
0.08261431 -0.0481062 0.1442575 0.008717234 0.0016670827 0.09545919 0.014220582 -0.15584484
0.031410594 0.012085742 -0.026417304 -0.085477516 -0.00978809 -0.014477061 0.12488659 0.086014055
-0.11034041 0.25887954 -0.045003496 -0.07457831 0.17379704 -0.07885453 0.021709008 -0.071467705
-0.10057514 0.038454447 -0.0416782 -0.02156214 -0.005613372 -0.032678522 -0.076949984 0.009507806
-0.068146735 -0.17808495 0.22206624 0.102311626 0.040200908 0.06590761 0.24931459 0.008201546
-0.07673714 0.05886299 -0.038100123 -0.058420405 -0.027900415 -0.016317105 -0.005775133 -0.052022185
0.2855891 0.16261926 0.017581599 0.10862422 -0.08182627 -0.1754553 0.12886743 0.107898794
-0.10281526 0.4299274 0.21400651 -0.1160892 0.062035665 -0.130799 -0.23862574 0.03929355
-0.11536001 -0.031316992 -0.08118469 -0.20764576 -0.022883499 -0.037726212 -0.18758492 -0.062193837
0.033304036 -0.06527634 -0.18579255 0.01756724 -0.08804667 0.042619064 -0.14334862 -0.1888668
0.09626202 -0.17952955 -0.28801492 0.007520137 -0.024826163 -0.09873844 0.13999155 0.08763856
00000000: c754 8fbd 7a33 073d d25c 283d 5548 07bc
00000010: 7d8c ed3c a388 233d b86d 07bc 7f27 62bd
00000020: f8af 103e 9c6d 6fbb f35f 92bd 1a32 4a3e
00000030: 4337 083e b511 b1bd add5 ab3d 245f 5ebc
00000040: 404b d43d 9eb2 0d3e f3bc 40bd 8cba 3ebd
00000050: a5df 963d 76bc 0e3e 4fb5 e9bc 44f5 45bc
00000060: fa5b 533e ebb9 cf3d 95dc a33d da5c ccbd
00000070: acf3 e93c 66d5 b1bd 225b 513e 5d0b 983d
00000080: f50e e03d f9f9 363e ac98 d83d e6f9 8e3c
00000090: f85a 2f3e e482 523d 0ed4 873c 54b1 d43d
000000a0: 89fd 85bd 7dca d6bc 961a b1bb 298d b13c
000000b0: 9893 983d e331 293e 623f 1d3c 6078 743d
000000c0: 72ae 243e 4b79 cd3d 8fec adbd 676c e23d
000000d0: 1318 98bd 9e4e 013d c2b2 cc3d 1625 30bd
000000e0: 3d8b 07bd 38f3 053e 8723 523c 3f10 cf3d
000000f0: fcd6 cc3d 5e84 303d fbfa c83c fe95 4d3d
00000100: 2628 05bd 3e81 2bbd 84aa 73bd 3d76 7bbd
00000110: e347 4dbd 3f6f b03c c4cd 59bc 8d73 153d
00000120: 181a a5bd 5dc9 313e 1375 37bd 4d18 71be
00000130: 8910 6a3d ed3e 583d 3d6e 1abd c9d5 f83d
00000140: 5e56 f4bd 98e3 e33c fd4a 9bbd b5a6 3dbd
00000150: bb20 7c3e 367f cf3c d99b 9cbd 7a68 8b3e
00000160: 63cb 90bd a05c b2bd 389c 603d c998 a93d
00000170: 087d 343d c9f0 f9bd 2b40 6c3d 7ac4 b43d
00000180: 9cf8 d9bd 1c85 413d a76c 8d3d 8159 b1bc
00000190: ba39 e3bd eb0e 3e3d d8ab 8d3b 1ea5 1fbd
000001a0: 109c a63d b240 1c3d 1b49 553c a7a3 0b3d
000001b0: 3370 ccbd 4961 26be 90cd 543c f05d 55bd
000001c0: 9b5d c5bd 6550 bdbc b870 a2ba 71b1 8dbd
000001d0: 2982 c23d fdf8 44bd 3bf0 4dbd 356a a73d
000001e0: 0246 b73c cfd8 bb3d e3db 6d3d b288 ec3d
000001f0: fe1c 393e 6354 073d 605b c5bd 243f ad3c
00000200: 6e22 bb3d 819f 0ebe e034 37bd 65ed 253d
00000210: 5531 003d f22f ebbc a879 0c3e 2698 4c3d
00000220: 1af7 663d b0d3 de3c d910 4b3d 1132 da3d
00000230: 490a f73d d265 bfbd 18a1 103e 0aba 903d
00000240: 802f 96ba 6ab2 b7bc 4f2b 2e3e 7274 983d
00000250: bdd5 0abe e8e3 1a3e a99d 043e f13c fdbc
00000260: 371c 103e b2a1 16bc 4ece 363e b5fd 49bd
00000270: 3903 0d3e 4e7a a73d bbbe 733d 3c21 9f3d
00000280: fb5f ce3d 2161 4d3c 89c0 c73d af0e 423d
00000290: 18d9 c93d 5e14 c43c b1eb 29bc 7a7f fcbd
000002a0: b131 a93d 020b 45bd 3db8 133e bbd2 0e3c
000002b0: 0382 da3a 1c80 c33d 72fd 683c ca95 1fbe
000002c0: 65a8 003d 4703 463c 1a69 d8bc d60e afbd
000002d0: 3a5e 20bc 3231 6dbc 8ac4 ff3d 2328 b03d
000002e0: 27fa e1bd dc8b 843e 9655 38bd 83bc 98bd
000002f0: daf7 313e 7c7e a1bd 17d7 b13c a95d 92bd
00000300: 57fa cdbd 6982 1d3d c3b6 2abd 16a3 b0bc
00000310: 61f0 b7bb ead9 05bd f497 9dbd a1c6 1b3c
00000320: 8490 8bbd e75b 36be 5565 633e c288 d13d
00000330: b5a9 243d 92fa 863d 534c 7f3e c75f 063c
00000340: 5d28 9dbd 521a 713d e00e 1cbd 3c4a 6fbd
00000350: 698f e4bc 73ab 85bc 543d bdbb 3715 55bd
00000360: bc38 923e aa85 263e 4907 903c 6076 de3d
00000370: 8894 a7bd 8eaa 33be d3f5 033e 0bfa dc3d
00000380: cf90 d2bd 721f dc3e 8624 5b3e 2dc0 edbd
00000390: 1c19 7e3d 2cf0 05be 4e5a 74be 46f2 203d
000003a0: de41 ecbd 3f46 00bd 2944 a6bd 17a1 54be
000003b0: 2d76 bbbc cd86 1abd 4316 40be f7be 7ebd
000003c0: d069 083d 9aaf 85bd 6740 3ebe 2ce9 8f3c
000003d0: d051 b4bd 5491 2e3d fbc9 12be 4c66 41be
000003e0: 0625 c53d 98d6 37be b176 93be 7b6b f63b
000003f0: 3d60 cbbc 6137 cabd f259 0f3e d87b b33d

lstm.weight_hh_l0 f4 [512, 128]
-0.009798596 -0.038208533 -0.11809347 -0.07880059 0.0004986052 -0.06452246 -0.04808169 0.007169344
-0.0565375 0.1023041 0.027669774 0.05637818 -0.031860374 -0.085719995 -0.016148899 0.07125965
-0.030094245 -0.07985371 0.035274517 0.010222022 -0.0027144693 -0.04862243 -0.0044793114 -0.048350282
-0.12234325 -0.04937484 0.10058541 0.019603947 -0.0020142742 -0.05656193 0.020911705 0.04924585
0.04514313 -0.094750255 -0.07442782 -0.12636878 0.047322977 0.05669625 0.00092525664 -0.05560068
0.0015795772 0.039370984 -0.1148617 -0.025169473 -0.02859372 0.09049736 0.08963036 -0.026121011
0.012638369 0.017439326 0.06597403 -0.044063054 -0.12576005 0.1163857 0.032383077 0.045376245
0.056766815 0.08081244 -0.049138736 -0.03675273 0.06822114 -0.002347849 -0.05109689 0.040277395
0.10336934 -0.029082924 -0.05139365 -0.085234046 0.024474898 -0.033928595 0.049815074 -0.0993619
0.034994867 0.051654875 -0.04190209 0.09999634 0.07634689 -0.06931983 0.08563883 0.03445486
0.003139341 0.034299664 0.08904965 0.095182665 0.025820877 -0.032720488 -0.00665695 0.083041884
-0.04070367 0.033435747 0.023818526 0.1196962 0.06345589 -0.035210572 -0.02422304 0.06203358
-0.01168539 0.06479291 -0.1154216 -0.033049766 -0.08251306 -0.053626817 -0.06387312 0.044863842
-0.031453762 -0.054482166 0.03934466 -0.03650621 -0.110211685 0.01077412 -0.02392778 0.03390478
0.04914921 -0.06671646 0.05717749 -0.021214211 -0.09489797 0.010607879 0.060946345 0.03317888
0.038997784 -0.022867339 -0.005528456 0.07591551 -0.033125687 -0.08345107 0.0049535935 0.07947719
-0.0042297333 -0.07698463 0.03237212 0.03278525 -0.008785495 0.006884385 0.11465198 0.06407833
0.050257664 -0.12519617 0.032504212 -0.025180927 0.056673974 -0.056125697 0.02016385 0.053303882
-0.038827978 0.06672786 0.018433435 0.042008422 0.082793035 -0.012064298 -0.0734153 0.029399298
0.05375928 -0.015858525 -0.115315996 -0.0030371698 -0.0422255 -0.09868751 -0.118349485 0.05691049
-0.026943792 -0.029387334 -0.095742956 0.13156301 0.057110287 -0.075126216 -0.08445647 0.059253633
-0.100554265 -0.064405605 0.0152230095 -0.013545439 -0.028590724 -0.07227161 -0.06060496 -0.016708165
-0.03192164 -0.0020248012 -0.08622377 0.042905968 -0.051457874 -0.08930696 -0.03045785 0.038056288
0.024963299 0.0035427522 -0.015189579 0.02397855 0.078354694 -0.0008306556 -0.018717984 -0.06638014
-0.09098215 0.014565076 -0.064855546 -0.07612144 -0.091372296 -0.05396594 -0.06456374 0.07577434
-0.05182139 0.13016093 -0.034790553 -0.06383188 0.060918193 -0.057239003 0.09037441 -0.06366081
-0.009784084 -0.040262587 0.08006968 0.05527038 0.013074413 0.08529975 -0.066430055 0.07475288
0.007769325 -0.017700123 0.04601756 0.016769053 0.065016426 -0.043327376 -0.06411232 -0.069054104
0.04751811 -0.09282442 0.019230995 -0.0485221 0.0883378 0.066957235 -0.022577975 -0.019565752
0.08149241 -0.08810894 0.020300278 -0.010703987 0.05655761 -0.04562419 -0.042965394 0.026946463
-0.058835655 0.039596215 0.03889408 -0.018397719 0.01497562 0.007933977 -0.0065331026 -0.044542957
0.049771797 -0.019063866 -0.00961196 0.023020064 -0.10770173 -0.06337906 -0.09989265 0.07659248
00000000: 4a8a 20bc 8d80 1cbd fdda f1bd 3462 a1bd
00000010: d4b4 023a 5a24 84bd 4ef1 44bd d1ec ea3b
00000020: de93 67bd d084 d13d b9ab e23c ceec 663d
00000030: 0680 02bd f78d afbd b24a 84bc 94f0 913d
00000040: 3588 f6bc 588a a3bd 037c 103d 457a 273c
00000050: 3de5 31bb 5028 47bd 30c7 92bb f20a 46bd
00000060: 198f fabd 463d 4abd b9ff cd3d 7598 a03c
00000070: ea01 04bb 7bad 67bd 064f ab3c 04b6 493d
00000080: 01e8 383d 6c0c c2bd 9d6d 98bd d166 01be
00000090: bdd5 413d 543a 683d ec8c 723a 8abd 63bd
000000a0: d109 cf3a 7843 213d 9c3c ebbd 3630 cebc
000000b0: 613d eabc ae56 b93d 1f90 b73d bbfb d5bc
000000c0: 2911 4f3c ebdc 8e3c 641d 873d 767b 34bd
000000d0: 3ec7 00be a05b ee3d 1ea4 043d 71dc 393d
000000e0: 5284 683d fe80 a53d b345 49bd 088a 16bd
000000f0: 86b7 8b3d 5fde 19bb f94a 51bd e9f9 243d
00000100: 4eb3 d33d 503f eebc 2682 52bd 308f aebd
00000110: 957f c83c b6f8 0abd e40a 4c3d 407e cbbd
00000120: c756 0f3d 1094 533d 87a1 2bbd e2ca cc3d
00000130: c25b 9c3d 8ef7 8dbd 6963 af3d 8a20 0d3d
00000140: 67bd 4d3b ce7d 0c3d aa5f b63d 21ef c23d
00000150: 4e86 d33c eb05 06bd 8b22 dabb dd11 aa3d
00000160: e4b8 26bd ecf3 083d 121f c33c 4823 f53d
00000170: 29f5 813d f638 10bd 666f c6bc ec16 7e3d
00000180: 1474 3fbc 25b2 843d 2962 ecbd 315f 07bd
00000190: 9bfc a8bd cba7 5bbd e9cf 82bd 26c3 373d
000001a0: a9d5 00bd b128 5fbd de27 213d 8987 15bd
000001b0: aab6 e1bd ef85 303c 3104 c4bc bddf 0a3d
000001c0: af50 493d a4a2 88bd f232 6a3d 6dc9 adbc
000001d0: de59 c2bd abcc 2d3c e0a2 793d 94e6 073d
000001e0: 24bc 1f3d 4954 bbbc 0d28 b5bb 9779 9b3d
000001f0: cdae 07bd 65e8 aabd c151 a23b f0c4 a23d
00000200: 9399 8abb 1eaa 9dbd a198 043d d449 063d
00000210: 09f1 0fbc 6896 e13b a8ce ea3d 803b 833d
00000220: fbda 4d3d 6d33 00be 2323 053d 3b48 cebc
00000230: f822 683d 0fe4 65bd a92e a53c 2c55 5a3d
00000240: 160a 1fbd 9ea8 883d b701 973c 0611 2c3d
00000250: 658f a93d 55a9 45bc c35a 96bd ccd6 f03c
00000260: b132 5c3d bde9 81bc cb2a ecbd 410b 47bb
00000270: a5f4 2cbd ad1c cabd 3761 f2bd f91a 693d
00000280: 3ab9 dcbc b5bd f0bc e214 c4bd 74b8 063e
00000290: 7aec 693d c6db 99bd 84f7 acbd f0b3 723d
000002a0: 65ef cdbd 16e7 83bd ee69 793c b0ed 5dbc
000002b0: 1837 eabc 2303 94bd e83c 78bd 90df 88bc
000002c0: 44c0 02bd 87b2 04bb 1796 b0bd 2bbe 2f3d
000002d0: 7ec5 52bd 91e6 b6bd be82 f9bc e9e0 1b3d
000002e0: d57f cc3c 852d 683b b6dd 78bc aa6e c43c
000002f0: 6d78 a03d 5bc0 59ba 7556 99bc 50f2 87bd
00000300: d954 babd 5ba2 6e3c fcd2 84bd 8fe5 9bbd
00000310: 6621 bbbd 640b 5dbd fe39 84bd 942f 9b3d
00000320: aa42 54bd e848 053e 8a80 0ebd 4aba 82bd
00000330: 5b85 793d 7273 6abd 3816 b93d 9960 82bd
00000340: 6c4d 20bc 62ea 24bd 93fb a33d 3263 623d
00000350: 1036 563c a3b1 ae3d 7b0c 88bd 0a18 993d
00000360: d295 fe3b d9ff 90bc e97c 3c3d 415f 893c
00000370: 5527 853d 0c78 31bd 524d 83bd 3d6c 8dbd
00000380: 5aa2 423d bb1a bebd 528a 9d3c 1cbf 46bd
00000390: 73ea b43d e020 893d 72f5 b8bc 5b48 a0bc
000003a0: 7ee5 a63d 7672 b4bd c54c a63c c75f 2fbc
000003b0: f4a8 673d 6ee0 3abd 7bfc 2fbd d4be dc3c
000003c0: a8fd 70bd a42f 223d 664f 1f3d d0b6 96bc
000003d0: 4e5c 753c 83fd 013c a313 d6bb ad72 36bd
000003e0: 83dd 4b3d d32b 9cbc 7b7b 1dbc 9394 bc3c
000003f0: ba92 dcbd e1cc 81bd 8594 ccbd 85dc 9c3d

lstm.bias_ih_l0 f4 [512]
0.06509068 0.002684557 -0.093641736 0.03782809 -0.024392717 0.07758057 0.023001805 0.009991519
0.032501075 -0.022567844 0.10286549 -0.017894587 0.011820341 -0.07010945 -0.06891265 -0.07055703
0.08102215 -0.03524685 0.070508495 -0.06209607 -0.06312035 0.033552412 0.047892597 -0.022966526
-0.016862337 0.094657816 -0.053657338 -0.08616911 0.021522552 0.019967776 0.06382108 -0.0408168
-0.045432914 -0.08571603 0.006662491 -0.06787834 -0.11350378 -0.004074573 -0.0046784314 0.06727563
-0.025645595 0.06978382 0.014340609 -0.078525595 0.0337663 -0.017306574 0.07302412 0.052736986
0.08782295 0.072094984 -0.07481532 -0.068759575 -0.0083124135 0.0075891837 -0.055539716 -0.022286255
-0.004183206 0.01627242 -0.028055009 -0.006194212 -0.017979303 -0.0018806884 0.017484788 0.01571042
0.055880833 -0.0008012962 0.050146807 -0.049604736 0.07568776 -0.0980231 -0.039634354 0.00011763138
-0.008650778 0.069862396 -0.06919994 -0.049022973 0.0057444023 0.07337784 -0.019795548 -0.007908959
0.06617219 0.009540197 0.06563294 -0.075581364 0.088484585 -0.029390741 0.014496707 -0.04229452
-0.032748915 0.0035018567 0.06640746 0.045951553 -0.010736297 0.047491416 0.025323827 -0.056626566
-0.058579136 0.042730745 0.032681257 0.023820752 0.007397077 0.015850445 -0.00056439417 0.04787966
-0.09463173 0.01142896 0.03775938 -0.029565012 -0.08738581 0.07210671 -0.020330202 -0.012474278
-0.009944705 0.03618094 -0.0838022 0.1164104 0.06801673 0.024551442 0.075115785 -0.057168923
-0.06830732 0.018504733 0.063894846 0.04571125 0.0063567776 -0.07022509 0.020096356 0.011663578
0.059046414 0.05311646 -0.050446104 -0.023987891 0.08538768 0.11884896 0.08734101 -0.030471813
-0.048069943 -0.041917227 0.0016214664 0.03452585 -0.05283192 -0.0016877825 0.018640757 0.003721993
0.041643504 0.027356865 0.048666257 0.08026167 0.049271267 0.05961113 0.029909344 0.07926505
0.01580601 -0.0076441863 -0.03831996 0.04821355 -0.010182456 0.0030539425 0.034558572 -0.02475363
-0.10733482 -0.0847275 -0.013176293 -0.05790661 -0.08534337 -0.08313496 -0.047044598 0.16975304
-0.061822418 -0.024054717 -0.017469939 0.02272837 -0.00345093 0.016477278 0.09575997 0.04522876
-0.01177062 0.08998783 -0.052689202 0.0119565055 -0.044392433 0.08870708 -0.08472467 0.10375767
0.029048523 0.042850517 -0.027941573 -0.045978867 0.058642503 0.047037076 0.04877398 -0.06416691
0.12637158 0.04713666 -0.04627968 -0.038834076 0.0712013 0.05322648 -0.08669848 0.01774966
-0.0043436657 0.0043216506 0.06360776 0.008505817 -0.10305852 0.010677346 -0.041746076 0.098588884
-0.006000586 0.041682832 -0.0978473 -0.04077297 -0.0484997 0.06454688 0.06925724 0.057538282
0.002275287 -0.051683027 0.03889802 -0.032695893 -0.027970478 0.0849737 0.057071153 0.048935074
0.034009118 0.056175966 0.007301267 0.021628544 0.13364333 0.11298453 -0.047120593 0.053379565
-0.03479255 -0.035445128 0.031082409 0.042303666 -0.05987765 -0.02740167 -0.025223525 0.12679215
-0.016229175 0.011040085 0.020068053 0.00057845726 -0.028321518 0.035034604 0.041020323 0.112546064
-0.06097581 0.07829151 0.0017140801 0.115865216 0.11142342 0.013675363 0.022829108 -0.045913573
00000000: 434e 853d 65ef 2f3b 3dc7 bfbd a1f1 1a3d
00000010: 3cd3 c7bc 90e2 9e3d 486e bc3c 78b3 233c
00000020: d91f 053d 33e0 b8bc 24ab d23d ab97 92bc
00000030: 1baa 413c 8b95 8fbd 1322 8dbd 3480 90bd
00000040: f1ee a53d 005f 10bd c266 903d 7358 7ebd
00000050: 3e45 81bd 416e 093d 072b 443d 4c24 bcbc
00000060: e222 8abc f5db c13d ccc7 5bbd 6e79 b0bd
00000070: 1050 b03c 7693 a33c a0b4 823d 842f 27bd
00000080: dd17 3abd e38b afbd 0651 da3b cd03 8bbd
00000090: ab74 e8bd ff83 85bb 874d 99bb cec7 893d
000000a0: b616 d2bc d2ea 8e3d e0f4 6a3c 07d2 a0bd
000000b0: 884e 0a3d 84c6 8dbc ab8d 953d bd02 583d
000000c0: 85dc b33d 89a6 933d c638 99bd d2d1 8cbd
000000d0: ca30 08bc b0ae f83b 9d7d 63bd aa91 b6bc
000000e0: 4613 89bb bd4d 853c 9ed3 e5bc d1f8 cabb
000000f0: 5549 93bc 6e81 f6ba 423c 8f3c 24b3 803c
00000100: 4de3 643d 140e 52ba bd66 4d3d 562e 4bbd
00000110: 2f02 9b3d 56c0 c8bd a257 22bd deb0 f638
00000120: febb 0dbc 0414 8f3d b3b8 8dbd 50cc 48bd
00000130: 8a3b bc3b 1f47 963d 462a a2bc 9494 01bc
00000140: 4985 873d 7d4e 1c3c 906a 863d 67ca 9abd
00000150: 6837 b53d dac4 f0bc 9983 6d3c 053d 2dbd
00000160: ba23 06bd 687f 653b a200 883d b237 3c3d
00000170: 4be7 2fbc 5c86 423d ea73 cf3c 42f1 67bd
00000180: adf0 6fbd 6f06 2f3d c8dc 053d bd23 c33c
00000190: 2e63 f23b cbd8 813c daf3 13ba 761d 443d
000001a0: 48ce c1bd 8840 3b3c 94a9 1a3d 5332 f2bc
000001b0: 55f7 b2bd afac 933d 868b a6bc ea60 4cbc
000001c0: 1eef 22bc 7732 143d 7da0 abbd 9368 ee3d
000001d0: 5b4c 8b3d 1b20 c93c 4ed6 993d f629 6abd
000001e0: b5e4 8bbd 3d97 973c 4ddb 823d b83b 3b3d
000001f0: 844c d03b 2cd2 8fbd 1da1 a43c 9818 3f3c
00000200: a7da 713d a590 593d 93a0 4ebd 4182 c4bc
00000210: bcdf ae3d 1567 f33d d8df b23d 06a0 f9bc
00000220: fde4 44bd 66b1 2bbd 6287 d43a fa6a 0d3d
00000230: 4966 58bd 9538 ddba 80b4 983c aeec 733b
00000240: 6192 2a3d 811b e03c 4556 473d 3b60 a43d
00000250: abd0 493d cd2a 743d 7104 f53c b755 a23d
00000260: 9b7b 813c 157c fabb 64f5 1cbd 927b 453d
00000270: 51d4 26bc a724 483b 4a8d 0d3d 20c8 cabc
00000280: 5cd2 dbbd 9d85 adbd 61e1 57bc 7b2f 6dbd
00000290: 81c8 aebd a942 aabd d6b1 40bd bed3 2d3e
000002a0: 8139 7dbd 660e c5bc 1e1d 8fbc d930 ba3c
000002b0: ff28 62bb 5bfb 863c ce1d c43d cb41 393d
000002c0: 8fd9 40bc 8a4b b83d a2d0 57bd 38e5 433c
000002d0: d7d4 35bd 0fac b53d 2184 adbd e77e d43d
000002e0: 2bf7 ed3c 0684 2f3d bae5 e4bc 5654 3cbd
000002f0: 1f33 703d f3a9 403d 3ac7 473d f169 83bd
00000300: 8d67 013e 5f12 413d c38f 3dbd 7b10 1fbd
00000310: fdd1 913d 0204 5a3d f98e b1bd bc67 913c
00000320: 4f55 8ebb a29c 8d3b c944 823d fb5b 0b3c
00000330: 5810 d3bd 09f0 2e3c effd 2abd f8e8 c93d
00000340: 90a0 c4bb 9ebb 2a3d 2a64 c8bd 8f01 27bd
00000350: 9fa7 46bd 2831 843d bdd6 8d3d 43ad 6b3d
00000360: fb1c 153b 95b1 53bd 8853 1f3d 21ec 05bd
00000370: 5822 e5bc b106 ae3d 71c3 693d 2570 483d
00000380: 254d 0b3d c518 663d 773f ef3b 582e b13c
00000390: ccd9 083e 6f64 e73d 8601 41bd 88a4 5a3d
000003a0: a282 0ebd e92e 11bd 89a0 fe3c 9c46 2d3d
000003b0: 4442 75bd 7879 e0bc 91a1 cebc cdd5 013e
000003c0: 0cf3 84bc 79e1 343c c265 a43c 9ca3 173a
000003d0: 8702 e8bc 7280 0f3d ed04 283d 8d7e e63d
000003e0: c5c1 79bd 4d57 a03d fcaa e03a be4a ed3d
000003f0: f631 e43d a10e 603c 1c04 bb3c df0f 3cbd

lstm.bias_hh_l0 f4 [512]
-0.06830231 -0.080284156 -0.03638737 0.071232356 -0.08088099 0.1418744 0.02575348 0.06676624
-0.024584 0.0005300831 0.08039695 0.012128339 -0.028997011 -0.08696065 -0.050202135 0.0330229
-0.0071668713 -0.03395487 0.01831448 0.084931806 0.068634495 -0.012089102 0.08302987 0.047440022
0.045142476 0.041282553 -0.05032686 0.002198988 -0.034529015 0.023389798 0.008737541 -0.03000068
0.059068132 -0.09927807 -0.020479701 -0.0367118 0.0048143887 -0.07821037 -0.060732577 0.008036412
0.013822655 0.03181768 -0.080206074 0.030314375 0.0037533515 -0.05414843 -0.045580607 -0.005697479
0.06742524 0.03674751 -0.11459736 0.01730312 0.044139605 -0.050153114 -0.0017854653 0.07145325
0.0702183 -0.007283855 -0.027006567 -0.042672496 0.0566496 0.05034798 0.02856026 -0.01072651
0.014368341 -0.0083901035 -0.093393594 -0.07795422 0.009077262 -0.09933399 -0.0431799 0.018779699
-0.038678873 -0.0021154755 -0.020799046 -0.06425962 0.020635862 0.042120904 -0.09525291 -0.01814846
0.062374994 0.017619232 0.010836273 0.031109825 0.08952898 -0.013242444 0.068456255 0.032424375
-0.0012029265 0.05141189 0.06386246 0.07820434 0.0098008225 -0.018662509 0.04209045 0.060846496
-0.09570494 -0.0419047 0.035529763 -0.07210332 -0.010334769 0.061439905 0.001317155 -5.9611644e-05
-0.021163885 -0.03760046 0.08698881 -0.05694419 0.024679223 0.025356214 0.005558909 0.04071604
-0.0362408 -0.061046142 -0.10407067 0.053686507 -0.07291225 0.026162846 -0.052652474 0.02975005
0.054405663 0.075904615 0.016016753 -0.03098093 -0.016099896 -0.09720562 0.03485303 -0.0036121262
0.022603972 0.061796363 0.061263207 0.07941334 -0.009261678 0.18302238 -0.049883246 0.08881633
-0.023692498 -0.03218874 0.109480865 0.0030571646 0.030139083 -0.06102542 0.022183549 0.026928505
0.019923037 0.059457477 0.016435204 -0.053408593 0.06188943 -0.07525158 0.054024637 0.101157404
-0.037552524 0.013409681 0.041193247 0.08961603 0.0053300695 0.06720687 0.007117436 0.058536865
0.047274325 -0.015465337 0.066633224 -0.05186441 -0.10415504 -0.007623733 0.11389664 0.046968505
-0.014031079 -0.04335362 -0.012300194 -0.07315431 -0.023712382 0.07263605 0.006600619 0.034414772
0.093444385 0.060399015 0.057647444 0.0035675683 -0.054438572 -0.015434144 -0.07406732 0.095266886
0.037351165 -0.06822146 0.046300113 -0.07231168 0.061162736 -0.011127209 -0.08252527 -0.040956005
-0.015717229 0.042186487 -0.0127905775 -0.013655424 0.041940562 -0.024565654 -0.04064148 -0.052538935
0.03420074 -0.0117844725 0.05775884 0.04880063 -0.0033714883 0.043468013 0.021610908 0.076727025
0.11143612 0.10078661 -0.0020068015 -0.017968554 -0.07838209 0.033722714 0.063600674 0.04472318
-0.025834594 0.105604485 0.08901071 -0.027176246 -0.015600176 0.113602035 -0.06278656 0.050844688
-0.060033325 0.06393762 0.0032621194 -0.08696286 -0.036089938 -0.052507967 -0.025808195 0.034971867
-0.06941525 -0.059949756 -0.049990557 0.05186785 0.01591006 -0.020641498 -0.021021487 -0.015640212
0.0062053297 0.040860265 0.059629265 0.09004194 -0.05684464 -0.050397836 -0.009254357 0.0696785
0.072461754 -0.05867606 -0.029921537 0.06614944 0.06300409 -0.033149835 0.0012527728 -0.0730824
00000000: 15e2 8bbd 056c a4bd ec0a 15bd 45e2 913d
00000010: efa4 a5bd 8647 113e f6f8 d23c bdbc 883d
00000020: 6364 c9bc 46f5 0a3a 28a7 a43d f1b5 463c
00000030: 248b edbc 6d18 b2bd c1a0 4dbd 0543 073d
00000040: 13d8 eabb 4314 0bbd 4008 963c baf0 ad3d
00000050: 3e90 8c3d 5e11 46bc 910b aa3d 7850 423d
00000060: 51e7 383d e517 293d 8a23 4ebd e61c 103b
00000070: 4c6e 0dbd f69b bf3c e727 0f3c fcc3 f5bc
00000080: 6df1 713d 4d52 cbbd 0cc5 a7bc 1d5f 16bd
00000090: 05c2 9d3b c22c a0bd b9c2 78bd 28ab 033c
000000a0: 6b78 623c 4153 023d 1543 a4bd da55 f83c
000000b0: cafa 753b beca 5dbd bbb2 3abd ebb1 babb
000000c0: 3f16 8a3d 8f84 163d 05b2 eabd 46bf 8d3c
000000d0: bbcb 343d 5a6d 4dbd 4606 eaba 1556 923d
000000e0: 9dce 8f3d 68ad eebb e03c ddbc 5bc9 2ebd
000000f0: 6909 683d af39 4e3d 35f7 e93c 3ebe 2fbc
00000100: 3169 6b3c a576 09bc 2445 bfbd 76a6 9fbd
00000110: ccb8 143c 9e6f cbbd 68dd 30bd e2d7 993c
00000120: bd6d 1ebd caa3 0abb c362 aabc 8c9a 83bd
00000130: 8a0c a93c f886 2c3d f513 c3bd 14ac 94bc
00000140: ec7c 7f3d 3556 903c a08a 313c 08da fe3c
00000150: f85a b73d d6f6 58bc cb32 8c3d 6ccf 043d
00000160: 84ab 9dba 4695 523d 52ca 823d 9929 a03d
00000170: a193 203c 1ee2 98bc 0967 2c3d 2d3a 793d
00000180: f400 c4bd 43a4 2bbd a887 113d e8aa 93bd
00000190: 2a53 29bc 69a8 7b3d 63a4 ac3a 8407 7ab8
000001a0: e25f adbc f102 1abd 3027 b23d 503e 69bd
000001b0: 152c ca3c d6b7 cf3c 8227 b63b ddc5 263d
000001c0: 3c71 14bd 850b 7abd 0123 d5bd 62e6 5b3d
000001d0: 0553 95bd 7753 d63c 1faa 57bd 60b6 f33c
000001e0: 79d8 5e3d e173 9b3d 9135 833c b8cb fdbc
000001f0: eee3 83bc bd13 c7bd 0dc2 0e3d 6cb9 6cbb
00000200: f72b b93c 2f1e 7d3d 21ef 7a3d 76a3 a23d
00000210: 4bbe 17bc 386a 3b3e 6052 4cbd 56e5 b53d
00000220: c516 c2bc 57d8 03bd 8137 e03d b65a 483b
00000230: 3de6 f63c caf5 79bd 46ba b53c 2b99 dc3c
00000240: a335 a33c af89 733d 1fa3 863c f8c2 5abd
00000250: c57f 7d3d 801d 9abd f048 5d3d 9d2b cf3d
00000260: add0 19bd 47b4 5b3c 40ba 283d 9c88 b73d
00000270: dda7 ae3b c1a3 893d 6139 e93b 5ac4 6f3d
00000280: b9a2 413d 5362 7dbc 0077 883d c76f 54bd
00000290: 3d4f d5bd 82d0 f9bb a442 e93d 0c62 403d
000002a0: 9ce2 65bc 9193 31bd c186 49bc edd1 95bd
000002b0: 7840 c2bc 36c2 943d 014a d83b 81f6 0c3d
000002c0: c55f bf3d f564 773d ba1f 6c3d ddcd 693b
000002d0: fbfa 5ebd 7edf 7cbc 9bb0 97bd 491b c33d
000002e0: 89fd 183d b1b7 8bbd 30a5 3d3d 2518 94bd
000002f0: c785 7a3d e64e 36bc 0203 a9bd 7cc1 27bd
00000300: 6bc1 80bc bdcb 2c3d 928f 51bc 00bb 5fbc
00000310: dec9 2b3d e93d c9bc ae77 26bd 1133 57bd
00000320: 1316 0c3d a913 41bc 8994 6c3d 2be3 473d
00000330: 30f4 5cbb 840b 323d 5c09 b13c 0f23 9d3d
00000340: 9f38 e43d 3669 ce3d 8b84 03bb ca32 93bc
00000350: ca86 a0bd d420 0a3d 1241 823d a72f 373d
00000360: 12a3 d3bc 2a47 d83d 3f4b b63d b8a0 debc
00000370: e197 7fbc 2fa8 e83d 3d96 80bd 8542 503d
00000380: 81e5 75bd baf1 823d 48c9 553b 9519 b2bd
00000390: 0bd3 13bd 9812 57bd b56b d3bc a93e 0f3d
000003a0: 9529 8ebd e08d 75bd e6c2 4cbd 6273 543d
000003b0: d055 823c 5c18 a9bc 4135 acbc e71f 80bc
000003c0: 1456 cb3b 185d 273d d13d 743d e967 b83d
000003d0: edd5 68bd f66d 4ebd 969f 17bc 9ab3 8e3d
000003e0: d466 943d 4f56 70bd 031e f5bc 5c79 873d
000003f0: 4a08 813d 1fc8 07bd 1434 a43a 3aac 95bd

lstm.weight_ih_l1 f4 [512, 128]
-0.008386956 -0.012625074 0.04694803 0.027860593 0.024156967 0.10478336 -0.08953855 -0.11586935
-0.13511993 0.008179038 -0.02176019 0.016452838 0.10059187 -0.037535235 -0.12601984 -0.051482257
0.09252572 -0.047016215 0.08456948 -0.04466119 -0.038737923 -0.055465717 -0.004153626 0.12978156
-0.052382924 0.13176507 0.048998803 -0.0357502 -0.043091957 0.15469405 0.1768329 0.10394808
0.02406471 -0.15806486 0.18830657 -0.02234066 0.08385913 0.030618325 0.110004805 -0.020485861
-0.047741212 -0.0050129048 -0.0011045898 0.0014057637 0.14531489 0.10477578 0.038655736 0.17207482
-0.11988225 0.059324935 0.06445494 -0.11556645 0.06169342 0.08890033 0.011788885 -0.11994777
0.013638892 -0.044141676 -0.051896203 -0.01610165 -0.13140681 0.033436686 -0.024054457 0.0018310966
0.029533409 0.025011193 0.14593832 0.15639389 0.10194778 0.009934392 -0.029889483 -0.05273438
-0.05494515 -0.074067965 0.12754044 0.13528958 0.030728517 0.0049415245 0.025022512 0.06243443
-0.12338476 0.012916994 -0.12426239 0.14398114 -0.096450634 -0.12049392 0.09155353 0.003176768
-0.08170868 -0.029291166 0.099594474 -0.11655351 0.08858768 0.1306752 0.081009194 -0.14648059
0.05475896 0.037078302 -0.044756573 -0.09131049 -0.015773287 -0.1649483 -0.047279786 0.12373585
-0.07472553 0.14170317 0.07175747 0.007163226 -0.08540282 0.040578473 -0.111667246 0.1379868
-0.0027406404 -0.042752285 -0.14560263 0.12951982 -0.10790791 0.053569645 -0.007899674 0.024447203
0.063733965 -0.067448795 0.10201148 -0.11598294 0.09196508 0.065002695 0.0822638 -0.016237557
0.08551046 0.04366001 -0.06866801 -0.07602485 0.04726882 0.23317192 0.031988125 0.060296346
0.12472119 -0.019951813 0.15813112 0.03525382 -0.03347956 0.063236915 0.021688432 0.005236049
-0.061942637 -0.08270793 0.027267702 -0.10963755 -0.019868221 0.01921085 0.10658004 -0.007978897
0.030616488 -0.12775761 0.07491225 -0.032347817 0.06567042 0.011088622 0.012465013 0.032998923
-0.035943247 0.08698579 -0.017363193 -0.0027628127 -0.057035647 0.0058104717 0.0908193 -0.0305606
-0.073312595 0.13190784 -0.030304808 0.059789665 0.009583436 0.08536135 0.013607398 0.015667737
0.168938 -0.03028539 -0.13232991 0.041112248 -0.008906457 0.049979925 -0.044431683 0.028161295
-0.05183036 0.058964953 -0.018265458 0.04088424 -0.033399697 0.17266382 0.13518426 0.021470582
-0.054224644 0.15023859 -0.085656546 -0.0787729 -0.030131428 -0.12310869 -0.02825411 0.1111802
-0.14148556 -0.06491861 -0.15219331 0.03577961 -0.077409066 -0.14610888 0.00019779074 0.06883009
0.059275057 -0.011650678 0.13169628 -0.11367066 0.043678354 -0.1019542 -0.022176623 0.06424838
0.0075989915 -0.05622433 -0.032803163 -0.022245456 0.067462154 -0.014454652 0.11745533 0.024454745
0.0348433 0.02432425 -0.10077961 -0.05922489 0.16874707 -0.03891064 -0.039457984 0.056997582
0.060762215 -0.04176165 0.015220533 0.09072146 0.023038452 -0.073025815 -0.04095908 0.051514857
-0.08802548 -0.037439883 -0.024196967 0.037544236 0.112270206 -0.08310748 0.06201481 -0.06576826
-0.05283126 -0.061993204 0.010863545 0.18163256 -0.14232072 -0.01905469 0.14107151 0.058177855
00000000: 7169 09bc 66d9 4ebc 944c 403d e63b e43c
00000010: d5e4 c53c a998 d63d fd5f b7bd e94c edbd
00000020: e15c 0abe 5f01 063c 6d42 b2bc 1ac8 863c
00000030: 1c03 ce3d 8cbe 19bd 580b 01be 0fdf 52bd
00000040: 207e bd3d 1394 40bd c332 ad3d a7ee 36bd
00000050: a8ab 1ebd 0530 63bd 241b 88bb 75e5 043e
00000060: 7a8f 56bd 6ced 063e f8b2 483d cd6e 12bd
00000070: 3181 30bd 1e68 1e3e af13 353e bbe2 d43d
00000080: 5b23 c53c c1db 21be 70d3 403e c303 b7bc
00000090: 56be ab3d 48d3 fa3c 334a e13d f7d1 a7bc
000000a0: 4a8c 43bd 4b43 a4bb e2c7 90ba 9a41 b83a
000000b0: 6dcd 143e af94 d63d 7a55 1e3d 6234 303e
000000c0: d384 f5bd b4fe 723d f400 843d 1aae ecbd
000000d0: 3db2 7c3d 6011 b63d 2b26 413c 2da7 f5bd
000000e0: a975 5f3c e7cd 34bd 1d91 54bd 9ce7 83bc
000000f0: 828f 06be e8f4 083d da0d c5bc 6801 f03a
00000100: 0cf0 f13c 46e4 cc3c db70 153e b825 203e
00000110: ffc9 d03d dcc3 223c cada f4bc 0100 58bd
00000120: 2a0e 61bd f2b0 97bd f699 023e 5a89 0a3e
00000130: 5fba fb3c 83ec a13b 03fc cc3c 3fbb 7f3d
00000140: 26b1 fcbd cda1 533c 487d febd cb6f 133e
00000150: e987 c5bd 84c5 f6bd 6b80 bb3d 5331 503b
00000160: e156 a7bd 07f4 efbc 30f8 cb3d 9bb3 eebd
00000170: 756d b53d b8cf 053e 26e8 a53d 02ff 15be
00000180: ee4a 603d 6bdf 173d ab52 37bd ff00 bbbd
00000190: fb36 81bc 35e8 28be 73a8 41bd 3969 fd3d
000001a0: b309 99bd a31a 113e 95f5 923d 7fb9 ea3b
000001b0: ace7 aebd 9d35 263d ccb1 e4bd 694c 0d3e
000001c0: 519c 33bb 051d 2fbd db18 15be d8a0 043e
000001d0: d3fe dcbd d86b 5b3d a26d 01bc 8045 c83c
000001e0: f486 823d 9822 8abd 65eb d03d 7788 edbd
000001f0: 3058 bc3d 2220 853d ec79 a83d a004 85bc
00000200: 1c20 af3d d7d4 323d d0a1 8cbd ebb2 9bbd
00000210: f39c 413d 9fc4 6e3e fb05 033d 4df9 763d
00000220: d36d ff3d fc71 a3bc 20ed 213e 4f66 103d
00000230: dd21 09bd 5b82 813d f0ab b13c 2a93 ab3b
00000240: 90b7 7dbd c662 a9bd 8460 df3c a789 e0bd
00000250: aec2 a2bc 1360 9d3c a346 da3d ebb9 02bc
00000260: 6ecf fa3c e4d2 02be 986b 993d 257f 04bd
00000270: 377e 863d 0dad 353c 0e3a 4c3c e129 073d
00000280: 3a39 13bd 9b25 b23d 413d 8ebc 4e10 35bb
00000290: 369e 69bd c565 be3b 78ff b93d 395a fabc
000002a0: ea24 96bd d912 073e ca41 f8bc 02e6 743d
000002b0: d803 1d3c eed1 ae3d 90f1 5e3c a059 803c
000002c0: 15fe 2c3e 1119 f8bc 7e81 07be 5165 283d
000002d0: 63ec 11bc c0b7 4c3d fffd 35bd 84b2 e63c
000002e0: 124c 54bd 3c85 713d 71a1 95bc 3c76 273d
000002f0: 1fce 08bd c9ce 303e be6d 0a3e 13e3 af3c
00000300: a91a 5ebd 25d8 193e b36c afbd b053 a1bd
00000310: 2fd6 f6bc 6920 fcbd 2a75 e7bc 72b2 e33d
00000320: 97e1 10be 0cf4 84bd 90d8 1bbe a48d 123d
00000330: a588 9ebd 919d 15be 0c66 4f39 caf6 8c3d
00000340: 67ca 723d 7ce2 3ebc 64db 063e 2acc e8bd
00000350: 13e8 323d 5dcd d0bd c0ab b5bc a894 833d
00000360: f600 f93b 7c4b 66bd 9c5c 06bd 1a3c b6bc
00000370: 9929 8a3d 34d3 6cbc 6c8c f03d 5155 c83c
00000380: d9b7 0e3d a643 c73c 8a65 cebd cc95 72bd
00000390: 08cc 2c3e c360 1fbd b29e 21bd 4c76 693d
000003a0: cde1 783d 440e 2bbd 8b5f 793c 2ccc b93d
000003b0: 23bb bc3c 8f8e 95bd b5c4 27bd 3e01 533d
000003c0: b446 b4bd 905a 19bd b838 c6bc fcc7 193d
000003d0: eced e53d 4134 aabd 3e03 7e3d 82b1 86bd
000003e0: 9765 58bd 96ec 7dbd 03fd 313c e3fd 393e
000003f0: 86bc 11be 9518 9cbc 0d75 103e e74b 6e3d

lstm.weight_hh_l1 f4 [512, 128]
0.048940953 0.11497959 -0.045310654 -0.116444096 -0.026353773 0.027867828 -0.006725654 -0.038878668
-0.06382624 -0.07985794 0.11744747 0.10223081 0.06581126 -0.03314326 -0.07518055 0.04884972
-0.038050883 0.03444573 0.106733546 -0.03163337 0.11140927 0.107732646 0.014533395 -0.12931333
-0.055498216 -0.016113436 0.038360126 -0.1458728 0.004108561 0.036914904 0.10404816 -0.09759338
0.05658508 -0.10243311 0.0018814355 -0.10548964 -0.025880236 -0.07431018 0.07638127 0.0043706507
-0.18346259 0.0045570508 -0.11878641 0.0054251323 0.08305326 -0.15335503 -0.03626329 0.07049923
-0.048207574 -0.057183865 -0.04765924 0.06755726 -0.012710722 -0.014579045 0.078546934 -0.11578555
0.03563807 -0.09532524 0.008500699 -0.09296438 0.02032279 0.09113143 -0.07502982 -0.051304888
-0.029380975 0.02187644 0.065306984 0.07377402 0.01908698 0.022553915 -0.04399998 -0.109196626
-0.03175699 0.031360235 0.002769255 0.022144696 -0.11142377 -0.089826524 -0.10055078 0.07752952
-0.07210063 -0.17302099 -0.13821828 0.021902213 0.04224787 0.02791152 -0.07738528 0.056806777
0.054927364 0.01489529 0.087278076 0.082314976 -0.05203784 -0.0056930766 0.043663822 -0.07838273
-0.0139512215 -0.100306675 0.0695714 0.032350935 0.1296597 -0.0031409499 0.015588118 -0.03535555
-0.055363167 0.011436383 0.013511927 0.070886165 0.032638803 -0.0008766431 -0.008360429 0.02345572
0.008539828 0.0828745 0.08042291 -0.048691526 -0.061373018 -0.04324041 -0.005262293 -0.107086174
0.06935834 0.014126456 0.073722415 -0.12103732 -0.10139777 0.08655658 -0.14490344 0.115047954
-0.046945333 -0.031285103 0.088682055 -0.026235675 0.024549158 0.020492807 0.011299979 -0.12509568
0.102373905 -0.0077177295 -0.00028799413 -0.05032258 0.06837063 0.0019962364 0.039660234 0.00025204875
0.003615257 -0.102137044 -0.06441339 -0.04373777 0.059528895 -0.0561185 -0.017977322 0.014376422
-0.06351804 0.062157746 -0.03277684 0.015372541 0.026378008 0.10703147 -0.024274204 -0.08076515
-0.06710174 -0.05770033 0.092162974 0.09930756 0.11381956 0.016644917 -0.038967952 0.05264388
-0.13305078 -0.039666176 0.015130253 -0.07768548 -0.09643401 -0.081570335 0.08611071 0.090371005
0.06717393 0.06914057 -0.042387914 0.05574369 -0.06670884 -0.012839893 -0.03364314 -0.10766984
0.015127988 -0.08362695 0.020018656 -0.029622814 0.08589904 0.07563153 -0.022495117 0.10581447
-0.014898391 -0.051623374 0.0092993425 0.01911471 0.06078475 -0.032588515 -0.04879509 -0.1537827
0.052307542 0.042025436 0.104665585 -0.051416196 -0.010835818 -0.05935225 0.063106224 0.07996473
0.08255884 -0.035271168 0.03708655 -0.055476587 -0.10358943 -0.01428271 0.0064305207 -0.04033126
0.038143598 -0.08883344 0.09208625 -0.052406847 -0.074905075 -0.036494147 0.009521698 0.08872038
0.050507408 0.07410957 -0.14456137 -0.020165905 -0.07885824 0.024973288 0.082407705 0.16079547
0.10298493 0.053425238 -0.09602848 -0.027636304 -0.0027903987 0.010678058 -0.0009779038 0.041705497
0.03278472 0.028973352 -0.07003007 0.0083319135 0.024031445 0.12940705 0.047577944 0.0044368436
-0.0011092201 0.05509591 0.090059765 -0.008331764 -0.0050656595 0.07320396 0.005748642 0.059629768
00000000: 4f76 483d 6b7a eb3d aa97 39bd 3e7a eebd
00000010: dee3 d7bc 124b e43c e062 dcbb 3d3f 1fbd
00000020: 55b7 82bd 8f8c a3bd 4d88 f03d 635e d13d
00000030: 0ec8 863d 3ac1 07bd 43f8 99bd a516 483d
00000040: 3edb 1bbd f716 0d3d 1e97 da3d fe91 01bd
00000050: 8b2a e43d efa2 dc3d 7a1d 6e3c b76a 04be
00000060: 1952 63bd 5300 84bc 821f 1d3d ae5f 15be
00000070: 1ca1 863b 1534 173d 3417 d53d 0adf c7bd
00000080: c2c5 673d 73c8 d1bd 809a f63a f40a d8bd
00000090: ca02 d4bc f02f 98bd c96d 9c3d ad37 8f3b
000000a0: 9edd 3bbe 5053 953b 4a46 f3bd 4fc5 b13b
000000b0: d417 aa3d 1a09 1dbe d188 14bd e661 903d
000000c0: 4e75 45bd a139 6abd 5636 43bd 765b 8a3d
000000d0: a240 50bc f2dc 6ebc 37dd a03d f920 edbd
000000e0: 3af9 113d e139 c3bd 8446 0b3c 1c64 bebd
000000f0: fb7b a63c 1da3 ba3d 3ca9 99bd 1325 52bd
00000100: 5fb0 f0bc 3836 b33c abbf 853d d516 973d
00000110: 4c5c 9c3c fdc2 b83c 5339 34bd 7ba2 dfbd
00000120: 9e13 02bd 9773 003d 647c 353b cb68 b53c
00000130: 2532 e4bd f8f6 b7bd 91ed cdbd ccc7 9e3d
00000140: 7fa9 93bd 6a2c 31be 1889 0dbe 456c b33c
00000150: 1a0c 2d3d b3a6 e43c 2c7c 9ebd 39ae 683d
00000160: 84fb 603d 600b 743c d9be b23d c194 a83d
00000170: a125 55bd fd8c babb d6d8 323d 2087 a0bd
00000180: aa93 64bc 966d cdbd 737b 8e3d 6a82 043d
00000190: 83c5 043e 65d8 4dbb 4e65 7f3c fbd0 10bd
000001a0: 7dc4 62bd ab5f 3b3c 2161 5d3c c42c 913d
000001b0: 44b0 053d 86ce 65ba 2efa 08bc 3626 c03c
000001c0: a2ea 0b3c 1bba a93d c4b4 a43d c470 47bd
000001d0: 4662 7bbd db1c 31bd 506f acbb ff4f dbbd
000001e0: bf0b 8e3d a772 673c c7fb 963d 6ae2 f7bd
000001f0: a2a9 cfbd 9444 b13d 9161 14be 439e eb3d
00000200: c049 40bd cf24 00bd f09e b53d 33ec d6bc
00000210: 511b c93c 88e0 a73c 8c23 393c 1519 00be
00000220: 69a9 d13d 02e5 fcbb ebfd 96b9 0d1f 4ebd
00000230: e705 8c3d 4ad3 023b c572 223d 6925 8439
00000240: f3ed 6c3b 3a2d d1bd 2beb 83bd 6026 33bd
00000250: 92d4 733d 83dc 65bd 2d45 93bc 168b 6b3c
00000260: bf15 82bd 1f99 7e3d 0241 06bd 1cdd 7b3c
00000270: b116 d83c 5133 db3d b2da c6bc 3368 a5bd
00000280: a36c 89bd 2e57 6cbd f1bf bc3d c361 cb3d
00000290: 3b1a e93d ec5a 883c dc9c 1fbd 1ca1 573d
000002a0: 773e 08be 0079 22bd e1e4 773c 9119 9fbd
000002b0: 327f c5bd 590e a7bd d05a b03d 6f14 b93d
000002c0: 7c92 893d 9299 8d3d f39e 2dbd 7f53 643d
000002d0: a59e 88bd 6a5e 52bc 64cd 09bd 0182 dcbd
000002e0: 61db 773c 9b44 abbd 2afe a33c 8bab f2bc
000002f0: d6eb af3d b4e4 9a3d ae47 b8bc 42b5 d83d
00000300: 6218 74bc 0873 53bd 455c 183c 7496 9c3c
00000310: 6ef9 783d 897b 05bd 5cdd 47bd 3679 1dbe
00000320: 6f40 563d dd22 2c3d e95a d63d ca99 52bd
00000330: b788 31bc 581b 73bd d63d 813d 8cc4 a33d
00000340: 9c14 a93d 8078 10bd 11e8 173d 6b3b 63bd
00000350: b226 d4bd 0702 6abc 1eb7 d23b 6432 25bd
00000360: 763c 1c3d 4eee b5bd b797 bc3d 90a8 56bd
00000370: d567 99bd e37a 15bd e500 1c3c 08b3 b53d
00000380: dbe0 4e3d c2c6 973d e507 14be f832 a5bc
00000390: 6e80 a1bd c894 cc3c 5fc5 a83d 91a7 243e
000003a0: c3e9 d23d 6cd4 5a3d 94aa c4bd 8865 e2bc
000003b0: 1fdf 36bb 05f3 2e3c 022d 80ba 62d3 2a3d
000003c0: 4549 063d 8659 ed3c ed6b 8fbd 9482 083c
000003d0: 98dd c43c 4883 043e 17e1 423d f162 913b
000003e0: 4063 91ba 40ac 613d 4171 b83d f381 08bc
000003f0: d5fd a5bb f5eb 953d 1b5f bc3b 583e 743d

lstm.bias_ih_l1 f4 [512]
-0.010637209 0.03157179 0.057230372 0.016446 0.04487653 -0.03946996 0.1286619 0.020773597
0.04993502 0.07850134 0.0041245488 0.024334317 0.0687784 0.08659428 0.089147 0.06436959
-0.018162781 0.08430929 -0.002292971 0.07408676 0.060026847 -0.049794447 -0.019539518 -0.06803893
-0.05215207 -0.025484473 0.114118345 0.018206729 0.038291026 -0.017384702 -0.033058148 -0.049760967
0.114466645 0.07263349 0.026683083 0.106052734 -0.10370813 0.07621618 -0.021189049 0.040877555
0.10851132 -0.06885845 0.08989064 -0.017933624 0.005566245 -0.052084778 0.05011972 -0.019951722
-0.0049539264 0.08515103 -0.032508347 0.027083872 0.010615985 -0.015831769 -0.0426235 -0.09421282
0.035942566 -0.047629658 0.082298756 -0.018270714 0.063036025 0.020238804 0.008461339 0.046512652
-0.084676445 0.01571602 0.0524525 0.06571224 0.07484669 -0.047183834 0.053429857 0.09579938
0.07372447 -0.010978545 0.061859205 -0.0019514516 -0.010135329 0.0035419336 0.035538044 0.08304908
0.0039453614 0.039405286 -0.11769756 0.06276963 0.060016323 0.110313565 -0.08150307 -0.024914369
-0.0697051 0.04035578 -0.021731773 0.05918651 -0.070016496 -0.0086966595 -0.016960949 0.004144924
-0.008470447 -0.026923569 0.048840247 0.052721206 0.05218006 -0.05063247 -0.021762745 -0.030234113
0.028396847 0.045675434 -0.08699631 0.06730304 -0.07701747 -0.0051728534 -0.025696179 0.07385211
0.10687527 0.030656578 -0.07689832 -0.07954747 0.08302738 0.031659547 -0.01926354 -0.02874232
-0.04350936 0.024308579 -0.040598553 -0.05146641 0.03926603 -0.050143145 -0.044321228 0.032417126
0.02374129 -0.05033786 0.1009664 0.044059906 -0.08193916 0.010400614 0.099624045 0.015446619
0.040599182 0.032066077 0.075427435 0.004422806 0.06433213 0.02060206 0.001867098 0.1247228
0.105089135 0.061916545 -0.0256874 -0.009771837 -0.008756732 -0.012667868 0.054945894 -0.015501146
-0.08281592 -0.0195518 0.05466954 0.072608456 0.10579889 0.024339503 0.08342788 0.11299033
-0.0070476895 -0.07734928 0.019229796 0.06364846 0.02310408 0.07051683 0.050587352 0.045456752
0.11609267 -0.024873724 0.038536537 0.05098483 0.012821114 0.036107548 0.100677535 0.072129145
-0.0033509673 0.013940198 -0.037675872 0.115344845 0.08638704 -0.07378905 0.01960751 0.026915103
0.001786342 0.07042665 0.1377291 0.015335653 0.15686749 0.03372608 0.059815332 0.11091731
0.024519583 -0.011398598 0.13625543 0.0018378287 0.10541134 0.02302484 -0.09451009 0.029725458
-0.008438386 0.038407944 0.070414215 -0.013978311 -0.011741757 0.07314987 0.044715617 0.009348193
-0.0035258322 0.04985127 -0.03212025 -0.041282367 0.01830985 0.13193764 0.065745816 0.10368526
0.035599574 0.1536876 0.13130352 0.019445702 0.039825473 -0.053008478 0.014708201 -0.00056603254
-0.078740664 0.022449292 0.074082054 0.049225606 0.023570755 -0.034550652 0.08189274 0.11752778
0.091228105 0.05412999 -0.027425708 0.076206975 -0.030217255 0.031123623 0.040319644 0.087391704
0.04208986 0.08393462 0.043520965 -0.025381537 0.0028323026 0.07172316 0.11290148 0.09889178
-0.058458 0.099090874 0.030481191 0.09646082 0.05971776 -0.04605343 0.032387625 0.078765504
00000000: b047 2ebc 6c51 013d 656a 6a3d c3b9 863c
00000010: 74d0 373d 41ab 21bd f2bf 033e 642d aa3c
00000020: aa88 4c3d 4fc5 a03d 3927 873b c358 c73c
00000030: b1db 8c3d 5858 b13d b492 b63d 34d4 833d
00000040: 1dca 94bc 59aa ac3d ab45 16bb cdba 973d
00000050: b6de 753d 43f5 4bbd 5711 a0bc ff57 8bbd
00000060: 699d 55bd d0c4 d0bc e1b6 e93d 4726 953c
00000070: 0dd7 1c3d 5d6a 8ebc fb67 07bd 28d2 4bbd
00000080: 7d6d ea3d dec0 943d 7b96 da3c 2d32 d93d
00000090: ee64 d4bd 3b17 9c3d a894 adbc 396f 273d
000000a0: 2f3b de3d a905 8dbd 9518 b83d 89e9 92bc
000000b0: 0c65 b63b d956 55bd 564a 4d3d cb71 a3bc
000000c0: 8c54 a2bb aa63 ae3d 7927 05bd ffde dd3c
000000d0: abee 2d3c a0b1 81bc fb95 2ebd a7f2 c0bd
000000e0: 8338 133d 5117 43bd 408c a83d 77ac 95bc
000000f0: 0819 813d d9cb a53c 6ea1 0a3c 0d84 3e3d
00000100: d86a adbd e2be 803c 6fd8 563d 2494 863d
00000110: 3949 993d d643 41bd 44d9 5a3d 7732 c43d
00000120: dbfc 963d 5bdf 33bc 1460 7d3d dac7 ffba
00000130: a70e 26bc c91f 683b 5790 113d a315 aa3d
00000140: 1748 813b 7067 213d 6b0b f1bd 5d8d 803d
00000150: add3 753d 14ec e13d 15eb a6bd 3819 ccbc
00000160: 8cc1 8ebd 1a4c 253d d506 b2bc 8e6d 723d
00000170: cf64 8fbd 6f7c 0ebc b0f1 8abc 25d2 873b
00000180: a1c7 0abc d18e dcbc b60c 483d 31f2 573d
00000190: c2ba 553d fe63 4fbd c947 b2bc 88ad f7bc
000001a0: 81a0 e83c 2a16 3b3d 1f2b b2bd 2dd6 893d
000001b0: 56bb 9dbd 0a81 a9bb cb80 d2bc c63f 973d
000001c0: 6ce1 da3d 8123 fb3c de7c 9dbd c9e9 a2bd
000001d0: 420a aa3d 71ad 013d 92ce 9dbc 0475 ebbc
000001e0: df36 32bd c922 c73c ab4a 26bd 71ce 52bd
000001f0: 6bd5 203d e662 4dbd 2d8a 35bd d2c7 043d
00000200: 187d c23c 122f 4ebd 79c7 ce3d 2978 343d
00000210: b8cf a7bd 5667 2a3c b107 cc3d d113 7d3c
00000220: 544b 263d b857 033d b379 9a3d 30ed 903b
00000230: 90c0 833d a7c5 a83c 6ab9 f43a ab6e ff3d
00000240: f938 d73d 349c 7d3d 626e d2bc 0e1a 20bc
00000250: 6578 0fbc e48c 4fbc f20e 613d 85f8 7dbc
00000260: 659b a9bd 192b a0bc 2bed 5f3d beb3 943d
00000270: 17ad d83d a363 c73c 3ddc aa3d 7967 e73d
00000280: 4ef0 e6bb 4d69 9ebd ce87 9d3c 205a 823d
00000290: c544 bd3c 216b 903d af34 4f3d dc30 3a3d
000002a0: fec1 ed3d fbc3 cbbc 7dd8 1d3d 78d5 503d
000002b0: a60f 523c 82e5 133d 0630 ce3d 72b8 933d
000002c0: e79b 5bbb 6e65 643c 0452 1abd eb39 ec3d
000002d0: b0eb b03d b71e 97bd ee9f a03c 107d dc3c
000002e0: b123 ea3a d93b 903d db08 0d3e 6442 7b3c
000002f0: dfa1 203e 5c24 0a3d ec00 753d 9d28 e33d
00000300: 4bdd c83c 2fc1 3abc 8b86 0b3e 4ce3 f03a
00000310: e7e1 d73d 979e bc3c 828e c1bd ce82 f33c
00000320: 2841 0abc a651 1d3d 5435 903d 4905 65bc
00000330: 8060 40bc 99cf 953d b927 373d 2a29 193c
00000340: a611 67bb d830 4c3d 8690 03bd b317 29bd
00000350: 8afe 953c a91a 073e bea5 863d f058 d43d
00000360: dcd0 113d 4860 1d3e 6e74 063e 984c 9f3c
00000370: 0920 233d 6b1f 59bd abfa 703c cd61 14ba
00000380: c942 a1bd 94e7 b73c 55b8 973d caa0 493d
00000390: 7517 c13c fc84 0dbd 62b7 a73d 68b2 f03d
000003a0: cdd5 ba3d 69b7 5d3d e1ab e0bc 6712 9c3d
000003b0: 2d8a f7bc f8f6 fe3c 3626 253d 6cfa b23d
000003c0: 6b66 2c3d eae5 ab3d 0a43 323d f1ec cfbc
000003d0: 279e 393b 98e3 923d e438 e73d c687 ca3d
000003e0: a871 6fbd 28f0 ca3d b1b3 f93c 408d c53d
000003f0: 9c9a 743d 85a2 3cbd e3a8 043d cf4f a13d
